backend/ml_pipeline/models/stgnn_yield_model.pth (torch, 40480 bytes, 13 tensors)

gcn_layers.0.weight f4 [5, 16]
000000 04 05 38 3e aa 19 2f bd 14 b3 4c be d8 f6 db 3e
       0.17970663 -0.042749085 -0.19990188 0.42961764
000010 f9 e5 6c 3d 79 1d ee bd f4 df 32 bd b5 58 ad 3e
       0.057836507 -0.11626715 -0.04367061 0.3385674
000020 b8 15 e9 3d de 9b 93 be 75 fe de 3e de 02 14 3e
       0.11381096 -0.28829855 0.4355351 0.14454219
000030 75 29 bd 3e bf 08 03 bb 03 ce 45 3e e3 3a 3a bc
       0.36945692 -0.0019994227 0.19316868 -0.011366579
000040 c8 7c c3 3e 03 83 ca 3d 17 40 4a bd 59 9b 0a be
       0.38181138 0.0988827 -0.049377527 -0.13535823
000050 b2 4d eb be f0 68 3d be 10 50 98 be 89 a3 1d 3e
       -0.45957714 -0.18497062 -0.29748583 0.15394415
000060 62 f1 89 be bd f0 9f be e7 28 bb be 8c f8 13 bf
       -0.26941973 -0.31238356 -0.36554644 -0.5780113
000070 fd b2 41 be 9d 90 00 bf b8 c5 7c 3e 67 24 b6 be
       -0.18915935 -0.5022066 0.24684799 -0.35574648
000080 26 78 2f 3f 89 ad 19 3f 65 cf b0 be 26 00 48 3d
       0.68542707 0.6003042 -0.3453323 0.048828267
000090 3c 6d 25 3d 45 73 2d 3f cc c3 b1 3d 36 27 30 3d
       0.040387377 0.6775401 0.086799234 0.043006144
0000a0 d0 e3 8b 3d bc e7 03 bf a8 66 98 3d dc 59 33 3e
       0.06830561 -0.51525474 0.07441455 0.17514747
0000b0 68 bb 8f 3d 52 b7 0a 3d 90 40 e5 3c 9c 96 11 3d
       0.07018167 0.033866234 0.027984887 0.035544023
0000c0 96 9b fa bc b9 f6 59 3c 4d f2 65 bd 71 2d 62 bc
       -0.030591767 0.013303452 -0.05613928 -0.013804779
0000d0 68 49 4c 3b 9e bd 63 3d 0f ac ed 3c 8f 66 46 bc
       0.0031171683 0.055600755 0.029012708 -0.012109413
0000e0 22 68 d3 3c 6c fb 6e 3d b4 12 72 ba 3b f0 c0 bd
       0.02580649 0.058345243 -0.00092343544 -0.0942082
0000f0 0f 04 ec 3a 28 5e 7f 3c 8d 10 53 bc 9e c7 2f bc
       0.0018006581 0.015586413 -0.012882364 -0.010728745
000100 9d 12 91 3e e3 d6 11 bd 03 4c 7a 3e 1c 33 a8 be
       0.28334513 -0.035605323 0.24443059 -0.32851493
000110 6f 14 8c be b5 a5 44 be 55 b8 95 3e 64 96 08 3e
       -0.2735934 -0.19203837 0.29242197 0.1333862
000120 ad 10 31 3d d2 5c c1 be 0b 7b 1c bf c6 30 c7 be
       0.043228794 -0.3776613 -0.6112525 -0.389044
000130 65 30 c4 be 80 1c 8d bd e1 04 38 3e 7e 5f c8 3d
       -0.38318172 -0.068902016 0.17970611 0.09783839

gcn_layers.0.bias f4 [16]
000000 ea 22 39 be ab ff 3a be d6 5d 45 be 99 c0 1d 3e
       -0.18079725 -0.18261592 -0.19274077 0.15405501
000010 d0 25 60 bb 72 65 9d bd 76 42 6b 3d 18 51 0c 3e
       -0.0034202226 -0.07685365 0.05743643 0.1370281
000020 d1 ad b8 3d b0 7d 66 be 3c 51 0d 3e 2d 80 15 bd
       0.09017528 -0.22508883 0.1380052 -0.03649919
000030 da 14 fb 3d 60 0a 9e 3c 95 00 81 bc aa 6b 8a 3d
       0.122598365 0.019292057 -0.015747348 0.067588165

gcn_layers.1.weight f4 [16, 32]
000000 cb b9 6c be ba f5 25 be aa 7c 91 3d 1a e7 59 bf
       -0.2311775 -0.16207018 0.07103856 -0.8511826
000010 91 ca 81 bc 0a a0 8e be 80 f2 aa 3c e8 b0 a2 be
       -0.015843662 -0.27856475 0.020867586 -0.31775594
000020 f8 9c 42 bf d5 d7 4c bd 82 df 0b bd bd ef 64 bf
       -0.76020765 -0.05001052 -0.0341487 -0.8942831
000030 04 e9 98 3b a8 84 7c 3d 41 31 b2 be 38 e9 ce be
       0.0046664495 0.06164995 -0.34803203 -0.40412307
000040 2f d7 cf bc 03 d8 ff bd 9b c1 8c be 17 60 c5 be
       -0.025371162 -0.12492373 -0.2749146 -0.38549873
000050 45 56 95 be 8d 76 c9 bd 08 21 4f be 19 7d 6e be
       -0.2916738 -0.09837065 -0.20227444 -0.23289908
000060 fc 0b 0d be 1b 67 87 be b4 bd 46 be 2c 82 7f be
       -0.13774103 -0.2644585 -0.19408303 -0.24952
000070 cb 50 86 be 18 14 82 bf 34 40 31 bb 77 eb 08 bf
       -0.26233515 -1.0162382 -0.0027046325 -0.5348429
000080 6e 8a 08 be be 34 34 be c9 49 4b be 9b 19 59 bf
       -0.13334057 -0.17598245 -0.19852366 -0.84804696
000090 d1 8b 01 be 79 5a 63 be ea 4e 2a be 86 43 7d be
       -0.12650992 -0.22202481 -0.16631666 -0.2473279
0000a0 25 e3 19 bf c9 4a 21 be bc 9d d5 bd fb 16 58 bf
       -0.6011222 -0.15751185 -0.10430476 -0.84410065
0000b0 fb 61 5e be aa eb 5b be 20 b8 6a be 50 4a 02 bf
       -0.21717064 -0.21476617 -0.229218 -0.5089464
0000c0 b2 01 72 bd ef 50 d4 bd dd ff f3 bc 10 ac 22 be
       -0.059083648 -0.10366999 -0.029785091 -0.15885949
0000d0 1f d4 82 be 18 1c d6 bc fd d7 46 be 62 04 28 be
       -0.2555246 -0.026136443 -0.1941833 -0.16407922
0000e0 6d c4 4a be 58 39 8e be 80 7c 74 bc a3 b8 4f be
       -0.19801493 -0.27778125 -0.014922261 -0.20285277
0000f0 02 5d 90 bd e2 ef 8a bf 01 59 cb bd f4 4e 1a bf
       -0.0704899 -1.0854456 -0.099290855 -0.6027672
000100 3a 91 6c be 8d ba 81 be f0 d1 6c bd 6e 8f 0c 3e
       -0.23102275 -0.2533764 -0.0578174 0.13726589
000110 02 97 0d 3e 0c aa a8 be d4 5f d7 bd 9f 29 8c be
       0.13827136 -0.32942235 -0.10516325 -0.27375504
000120 7f 08 0b be 04 06 b8 be ce 93 5e 3d 0b 4e 4e be
       -0.1357746 -0.3594209 0.054340176 -0.20146959
000130 63 4c 00 bc 09 f1 0a be 6e 5e 00 be 8b 56 a2 be
       -0.007830712 -0.1356851 -0.12536022 -0.31706652
000140 c7 a6 5c 3c ce d4 1e be b3 e9 b1 bd d8 60 9c be
       0.013467497 -0.15510866 -0.08687153 -0.30542636
000150 40 1a d4 bd 6a 0b dd bd 6d e5 a5 be ab 7a eb 3c
       -0.10356569 -0.10793193 -0.324016 0.028745016
000160 9e 9d 0a be 33 12 ca be 7a 94 95 be fd 65 7f be
       -0.13536689 -0.3946701 -0.2921484 -0.24941249
000170 d2 3c ef bc e0 96 76 be c0 99 ad be d1 25 ad be
       -0.029203806 -0.24080992 -0.33906364 -0.33817914
000180 98 81 26 be 13 90 9b 3d b4 ef b1 3e 1f 8c d7 bd
       -0.16260374 0.07595839 0.3475319 -0.10524773
000190 7b 2a 16 3e 5c 79 db 3d 11 ae ab 3d e1 29 05 be
       0.14664643 0.10716507 0.0838281 -0.13004257
0001a0 35 51 66 3e 3a 79 5d 3e 6a a7 57 3e e4 22 15 bd
       0.22491916 0.21628276 0.21059957 -0.036410227
0001b0 6f aa 26 bd cf ca c2 3d 4b b5 28 bd 4d 23 e3 bd
       -0.040689882 0.09511339 -0.04118852 -0.110907175
0001c0 74 b6 88 3e 0d 78 a1 3e 44 4b 74 3c b4 97 a4 bc
       0.267017 0.31536904 0.014910523 -0.020091869
0001d0 9e 5d 8e 3d e0 4b 05 3e b0 fe 47 3e ed d5 9f 3d
       0.0695145 0.13017225 0.1953075 0.07804475
0001e0 d1 21 43 be b9 dc 81 bd dc fd a2 3e d7 05 53 3e
       -0.19055869 -0.06340928 0.31834304 0.20607696
0001f0 6a ce a2 3c e0 58 f0 bc ed dc f6 bd f9 48 16 be
       0.019873817 -0.029339254 -0.12053857 -0.14676274
000200 33 f7 f4 3b 53 dd d3 3d 07 e7 a3 3e 79 3c 88 3e
       0.0074757575 0.103449486 0.32012197 0.26608637
000210 9a 27 9f bd 04 28 e3 bd fc 2e bb 3d a5 65 c0 3e
       -0.07771225 -0.11091617 0.09139821 0.3757755
000220 f2 8c dd 3d df 9e 6a 3d ca d7 63 3e 46 b9 47 3c
       0.10817899 0.057280418 0.22250286 0.012190169
000230 27 46 88 bd 79 ae a2 3e db 7b 27 bd c3 23 81 bd
       -0.066540055 0.31773737 -0.040889602 -0.06305649
000240 a1 3e 6a be c8 c1 a6 3e 83 ec b0 3e 65 dd 4b 3e
       -0.22875454 0.32569718 0.34555444 0.19908674
000250 93 49 08 be 45 da c4 bd db 1c e9 bd 28 3d 9a 3e
       -0.13309316 -0.09611944 -0.11382457 0.30124784
000260 83 08 90 3e e1 9f a9 3e 96 3c 99 3e b9 0e 23 3e
       0.28131494 0.3312979 0.29929036 0.15923585
000270 83 df 96 3d 4e fc a0 bd 2e 92 8a bd 4e c9 20 be
       0.0736685 -0.07860623 -0.06766163 -0.15701792
000280 95 52 ce bd c5 89 ad bd ba 3c 08 be a0 9f 56 bf
       -0.10074345 -0.08473543 -0.13304415 -0.8383732
000290 17 8b 2f be 55 13 15 be d3 d2 3b be b4 13 a6 bd
       -0.17142902 -0.14558156 -0.18342142 -0.08109227
0002a0 fc b7 17 bf d0 b8 37 bd 58 2d a3 bd 5a 09 57 bf
       -0.5926511 -0.044853985 -0.07967633 -0.83998644
0002b0 b5 47 0b be 09 64 30 be b3 27 12 be 24 91 c7 be
       -0.13601573 -0.1722566 -0.14272957 -0.3897792
0002c0 88 8a a9 bd c3 e4 c1 bd a5 a5 e1 bd 3e 4e f4 bd
       -0.08278376 -0.09467461 -0.11017922 -0.11928986
0002d0 42 ff 90 bb b4 78 62 be 58 96 63 bd cf 5f fa bd
       -0.0044249604 -0.22116357 -0.0555633 -0.12225305
0002e0 bb 14 44 bd 42 53 5d 3d b5 d6 b8 bd 5c b2 c0 bd
       -0.047871333 0.05403448 -0.09025327 -0.09409019
0002f0 b0 68 18 be 51 0d 6f bf 63 9e c4 bd 18 61 2e bf
       -0.14883685 -0.93379694 -0.09600522 -0.68116903
000300 3f cb 52 3e 59 78 38 3e 17 40 d4 3e 74 2d 01 3d
       0.20585345 0.18014659 0.41455147 0.031537488
000310 d9 02 29 bd 90 71 30 3e d4 73 9c 3e 98 f5 18 be
       -0.04126248 0.1723082 0.3055712 -0.14937437
000320 98 c8 31 3d 7d 67 25 3d 8d f3 bc 3d 6e 86 b3 3c
       0.04340419 0.040381897 0.09226141 0.021914687
000330 91 8b 61 3d bc a7 51 bd 59 72 bf be a2 e2 9b 3e
       0.05506474 -0.051185355 -0.37391928 0.30446345
000340 43 42 a4 3e 91 8f 18 3c 40 d8 5b 3e 0e 3a 81 bc
       0.32081804 0.009311573 0.21469212 -0.015774753
000350 e2 02 94 be 7e 61 56 3d 68 29 6a 3e 0a e3 3b be
       -0.2890845 0.05233907 0.22867358 -0.18348327
000360 42 37 bb bd 42 39 42 3d 73 44 15 3e 26 d8 55 bd
       -0.09141399 0.047417887 0.14576893 -0.05220809
000370 4f fd 84 3d 6a f3 3a bc 3b c0 4a ba b4 69 11 be
       0.06493627 -0.0114105735 -0.0007734333 -0.14200479
000380 68 99 36 be d6 75 97 3e 68 0e 81 bc 81 88 32 3e
       -0.17831957 0.2958209 -0.01575394 0.17434885
000390 80 e5 9e bd ae 88 b7 3b 83 e3 a4 3e cf 85 58 3e
       -0.077586174 0.0056010103 0.32204828 0.21144794
0003a0 2d ce 50 be fd d6 25 3e 0a 00 cc 3e 8e 1d bc 3c
       -0.2039115 0.16195293 0.3984378 0.022963312
0003b0 13 66 97 3e 60 ba bd 3e 06 ca 00 bd 09 40 97 3d
       0.29570064 0.37056255 -0.031442665 0.073852606
0003c0 4a 60 4c be 38 44 46 bd a4 bf a8 3e d2 ce 4e 3e
       -0.19958606 -0.048404902 0.3295871 0.20196083
0003d0 fe 9f 2d be 11 01 23 bd 21 ce c1 bd 3f 27 ac be
       -0.16955563 -0.03979594 -0.09463144 -0.33623692
0003e0 bc cb 29 be b5 53 80 bc 1b 0f 83 3e 2d 23 bf 3d
       -0.16581625 -0.015664915 0.25597462 0.09332881
0003f0 c7 d7 30 be 3c 74 47 be a2 aa 5b 3e 27 17 34 be
       -0.17269813 -0.19477934 0.2145181 -0.17586957

gcn_layers.1.bias f4 [32]
000000 b6 a6 17 3e 39 91 08 3e 1e 2f b6 3d 3f 8d a5 3d
       0.14809689 0.13336648 0.08895706 0.08083581
000010 e8 3a d7 3d f1 e8 37 3e de 85 04 3e 3a 64 2f 3e
       0.10509282 0.17959954 0.12941691 0.17128077
000020 a4 91 b0 3d 9b 86 9e 3d 0b 8b 8a 3d bd 44 02 3e
       0.08621529 0.07740518 0.067648016 0.12721534
000030 77 68 ef 3d 8e 76 09 3e dd 37 30 3e ce 63 7f 3d
       0.11689847 0.13424131 0.1720881 0.06235104
000040 c6 96 6d 3d f0 25 ee 3d 95 be 0c 3e af 21 24 3e
       0.058005117 0.1162833 0.13744576 0.16028474
000050 f0 83 fb 3d 83 36 17 3e 54 26 0e 3e a9 57 2a 3e
       0.122810245 0.14766888 0.13881809 0.16635002
000060 50 c3 f2 3d 83 19 e1 3d 8e 7d b9 3d 09 03 2b 3e
       0.11853659 0.10991194 0.09057151 0.16700377
000070 ad 8f 2c 3e 07 73 b7 3d 6e 1d 95 3d 35 e3 f2 3d
       0.16851683 0.089574866 0.07281004 0.118597426

tcn.network.0.conv.weight f4 [32, 32, 3]
000000 0d db b4 3b 23 03 1e bb 82 64 df 3c 23 b4 15 bd
       0.005519277 -0.0024110756 0.027269606 -0.036548745
000010 67 2c b9 3d a8 1e eb 3c 4c 54 0a bc 94 41 0d 3c
       0.09041672 0.028701141 -0.0084429495 0.008621592
000020 20 08 33 bc 3c 1e c5 bb 2c 8d da 3d ae bc ff 3d
       -0.01092723 -0.006015567 0.10671458 0.1248716
000030 1d 7f 47 3d c6 25 a6 3d d2 5f ac 3d a7 4c 30 3d
       0.04870521 0.081126735 0.08416714 0.04304185
000040 18 06 f4 3d 0d a5 d6 3d 74 23 99 3c 6b 1c 0f 3d
       0.11915225 0.104807 0.018693663 0.03493921
000050 5a 2c d4 3d ee f3 97 3d 54 a0 95 3d 9e b8 02 3d
       0.10360022 0.07419573 0.07305971 0.031914346
000060 b1 0e 73 3d d5 de b1 3d 82 32 b1 3d d3 48 2f 3d
       0.059340183 0.0868508 0.08652212 0.04279406
000070 0e 85 58 3d 34 4b 02 3e 31 3c f6 bd 73 49 a7 3d
       0.052861266 0.12724 -0.12023199 0.08168306
000080 b3 9e 1c 3d b9 66 17 3e f1 95 35 3e a9 e2 26 3e
       0.038237285 0.1478528 0.1773298 0.16297401
000090 71 41 07 bc e0 46 35 3d 3f e5 50 3d 75 dc a2 bc
       -0.008255349 0.044257045 0.050999876 -0.019880513
0000a0 30 a9 d6 3d 6b 46 a9 3d 9a a7 0d bd 2c 9e be 3d
       0.10481489 0.08265384 -0.034583665 0.09307513
0000b0 14 7f 5d 3d 97 e2 1f bc 99 62 42 3d f3 6b da 3c
       0.05407627 -0.009758613 0.04745731 0.026662802
0000c0 07 f8 5d bc 21 fc 1d bd 24 7a b0 3d 4f 33 bb bb
       -0.013547904 -0.038570527 0.086170465 -0.0057129036
0000d0 7d 79 3e 3d 3f 3c ff 3c 48 b5 28 3d c9 a3 c3 3d
       0.04650258 0.031156657 0.04118851 0.09552724
0000e0 95 ad 67 3d 26 ac 56 3d 81 23 00 3e 1e e8 22 3c
       0.056562025 0.052410267 0.12513544 0.009943036
0000f0 23 2c 1b bc 37 8f 47 bc c0 44 6b 3d aa 1e cc bc
       -0.009470972 -0.012180141 0.057438612 -0.024916966
000100 7f 5b 71 3d fd b3 87 3b 06 7a 33 3d 3f 59 f0 3d
       0.058925148 0.0041413293 0.043817542 0.11735772
000110 4f b7 5f 3d 68 70 c1 3d 1d 1f 86 3d 27 96 fe 3d
       0.054618176 0.09445268 0.06548903 0.12430983
000120 f9 65 29 3d 0f 0f fa 3c a8 a8 61 3d 5c d9 4e 3c
       0.041357014 0.030524759 0.055092484 0.012625065
000130 8b 7c 05 3e 53 56 7c 3d ab 64 58 3d b2 9d 11 3e
       0.1303579 0.061605763 0.05283038 0.14220312
000140 38 5a 07 3e 3e a6 9b 3d 76 8a 30 3d 03 04 d3 3d
       0.1321801 0.076000676 0.043100797 0.103034995
000150 cd 3e 49 3d 8d 2a 8c 3d ca 33 ad 3d 0b d2 ae bb
       0.049132157 0.068440534 0.084571436 -0.0053350977
000160 90 a5 1b 3e 71 05 05 3e fb 5f a2 bc 14 39 ca 3c
       0.15199876 0.12990357 -0.019821158 0.02468542
000170 15 ff 3f bc c7 fa cb bc fc 3b c3 bb e8 36 82 3d
       -0.011718531 -0.024899853 -0.0059580784 0.06358129
000180 93 7e 3b bd 6e f7 f8 3a 25 3b 94 3d 84 3b be 3d
       -0.045775007 0.0018994638 0.072378434 0.092886955
000190 e0 0b 8e 3d da b3 31 3e 72 34 0e 3d 3d ff 07 3e
       0.06935859 0.17353764 0.034717984 0.1328096
0001a0 47 0e 0e 3e 78 d5 81 3d 9b aa 4a 3d 93 ce 26 3e
       0.13872634 0.06339544 0.04947911 0.1628974
0001b0 60 b3 64 3c 8b b8 56 bd 71 e9 8f bb 91 03 8a bd
       0.013958782 -0.052422088 -0.004391842 -0.067389615
0001c0 dc bd 2d 3d 91 eb 22 3d 7c 50 29 3d f3 7a 8f 3d
       0.042417392 0.039775435 0.04133652 0.070058726
0001d0 4b 02 70 3c 99 5d 28 3d 8a 9d 81 3d 6c be a7 3d
       0.014648984 0.041104887 0.06328876 0.08190617
0001e0 0d cb 99 3d 29 17 b5 bd ec ed 87 3d 7c 23 f0 3d
       0.07509432 -0.08842308 0.06637177 0.11725518
0001f0 64 e9 bd 3d 63 9c 50 bc 5c c8 a3 bc ae 83 3b 3b
       0.09273031 -0.012732598 -0.019993 0.0028612423
000200 7c 30 ab 3d 91 c7 4f 3d 0f 82 17 3d fe 4d 13 3e
       0.08358857 0.05072743 0.036989268 0.1438522
000210 90 7f e1 3b 5e 15 89 3d bb 75 e0 3d ea 17 b8 bd
       0.0068816617 0.066935286 0.10959955 -0.08988936
000220 cd f0 30 bd dd 13 24 3a d2 e4 af 3d e2 ec 8b bc
       -0.043198396 0.00062590634 0.08588566 -0.017080728
000230 1f 8f f2 bc a3 49 e1 3c d9 de d0 3d 24 5b dd 3d
       -0.029609261 0.027500933 0.10198755 0.10808399
000240 93 b0 98 bd 63 7f 9b bc 6c 0a cb 3d c8 b8 ee 3d
       -0.07455554 -0.018981641 0.09914097 0.11656338
000250 ff e8 0d 3e 0f 8b 84 3d 49 a8 48 3d 69 ab 11 3e
       0.13858412 0.06471836 0.048988614 0.14225544
000260 a6 65 fa bb 51 5d 9f bc eb be cf 3d 87 a1 f5 3a
       -0.007641512 -0.019453676 0.101438366 0.0018740156
000270 ba c4 e6 3a e0 21 e1 3d 21 f1 a9 3d d1 e9 a3 3c
       0.0017606237 0.10992789 0.08297945 0.020008953
000280 d8 ec 07 3d d6 94 1e 3d 7c 49 12 3e a1 e5 38 3d
       0.033184856 0.03871616 0.14285845 0.045140866
000290 9d 79 b0 3d 48 04 6d 3d 96 d9 07 bb 86 24 e7 3d
       0.08616946 0.05786541 -0.0020729057 0.11286263
0002a0 47 ac 18 bd db ba 14 3d c8 2f 8f 3b 58 6c 8c bc
       -0.03727367 0.03631101 0.0043697096 -0.017141506
0002b0 ee e2 06 bd 08 49 6f 3d 57 f2 70 3c ae c4 f8 bc
       -0.03293126 0.058419257 0.014706216 -0.030367222
0002c0 bd e3 95 bb 12 46 28 3e 4b 48 cc 3d f8 d5 ee 3d
       -0.0045742677 0.1643298 0.09974726 0.11661905
0002d0 13 95 25 bc 94 db 97 3b 36 89 65 3d 26 dd 1c bc
       -0.010106343 0.00463433 0.056039058 -0.00957421
0002e0 47 9b 75 3d 12 33 9d 3d 23 4e af 3d 90 3e 71 3d
       0.059962537 0.076757565 0.08559825 0.058897555
0002f0 7c 73 80 3d a3 68 0d bd cb 0a 4f 3d d6 b4 53 3d
       0.06272027 -0.034523617 0.050547402 0.05168613
000300 93 a1 e5 bc 74 54 ac bd 8d c5 1e 3d 12 a3 42 3c
       -0.028031146 -0.08414546 0.038762618 0.011879699
000310 28 ac 52 bc a2 fe eb 3d 6b f4 6f bd ad 18 d4 3d
       -0.012858428 0.11523177 -0.058582705 0.10356269
000320 83 bf 4b 3d 47 f3 26 bd 6e 80 28 3e 7e a4 00 bc
       0.049743187 -0.04075935 0.16455242 -0.007851718
000330 3b c0 ac bd ed 00 19 3b 07 c5 88 bd 43 da ff 3d
       -0.084351026 0.00233465 -0.06678205 0.12492802
000340 2d 94 37 3d 3e 1f d7 3d 20 4c 0b be b8 60 d6 3d
       0.044819046 0.10504006 -0.13603258 0.104676664
000350 70 5c 36 bd 91 f5 8f bc ec b9 89 3d d7 7e 9d 3b
       -0.04452175 -0.01757315 0.06724915 0.0048063803
000360 f9 45 ea 3d 44 bd 28 3a 31 ef fd bb aa ba 1f 3c
       0.114391275 0.0006436894 -0.007749461 0.009749094
000370 f6 d7 72 3d 47 c3 97 3d 9c c3 49 3c 89 57 90 bc
       0.059287988 0.07410293 0.012314703 -0.017619865
000380 1a a4 9f 3d e6 cb 09 3e d3 3f 0f 3e 06 68 23 3e
       0.07794972 0.13456687 0.13989191 0.1595765
000390 2d 63 d2 3d e3 55 0c 3e c0 0f 1e bd b8 2d 9a bc
       0.102728225 0.13704638 -0.03858924 -0.018820629
0003a0 70 1d d6 3c e5 53 a7 ba 3a f8 6d 3d cd 68 3e 3d
       0.026137084 -0.0012766091 0.058098055 0.046486665
0003b0 94 c6 e1 3d 3a d4 b4 3c ad 67 cd 3d 78 11 35 3c
       0.11024204 0.022073854 0.1002954 0.011051528
0003c0 e0 67 c0 bd a2 b5 0e bc 13 5a be bc e1 5c 37 3d
       -0.093948126 -0.008710297 -0.02323631 0.04476631
0003d0 9b 12 21 bd de da 39 3d 2d b0 88 3d 26 61 2c bc
       -0.039324384 0.045374744 0.06674228 -0.010521209
0003e0 c7 53 2e 3d 14 61 34 3b 4f c0 28 bc 8e 1a 5a 3b
       0.042560365 0.0027523683 -0.010299756 0.0033279988
0003f0 8e 32 e8 bc a5 c0 02 bc 30 42 85 3d c1 d0 cb ba
       -0.028344419 -0.0079805 0.06506765 -0.0015549884

tcn.network.0.conv.bias f4 [32]
000000 a7 19 e5 3e e7 6f f5 3e 5b 9d f4 3e dc 8f f8 3e
       0.44746134 0.47936937 0.47776303 0.48547256
000010 d8 95 17 3f 64 d0 01 3f c0 c4 e4 3e d1 66 ce 3e
       0.5921302 0.50708604 0.44681358 0.40312818
000020 29 35 0e 3f 98 75 fd 3e 75 df 99 b2 34 b9 e7 3e
       0.55549866 0.4950378 -1.791316e-08 0.45258486
000030 42 4e 01 3f b2 a6 ed 3e 72 48 f8 3e 49 da e5 3e
       0.50510037 0.4641624 0.4849277 0.448931
000040 2c 74 e0 3e 66 4e ef 3e eb cb fd 3e 31 cf 08 3f
       0.43838632 0.467395 0.4956964 0.5344115
000050 c6 62 dc 3e a1 48 07 3f 97 29 0b 3f e0 91 0e 3f
       0.43044108 0.528452 0.54360336 0.5569134
000060 5f 87 fa 3e e2 4d df 3e fd 41 03 3f b4 9b fe 3e
       0.48931405 0.43614107 0.51272565 0.49728167
000070 d9 3d d4 3e eb 14 df 3e 7e 79 ff 3e c9 e3 0b 3f
       0.41453436 0.43570647 0.4989738 0.5464445

tcn.network.1.conv.weight f4 [32, 32, 3]
000000 7f 84 89 3d 40 73 ae 3d e8 9f ed 3b 3a 22 f1 bc
       0.06714725 0.08518076 0.0072517283 -0.029435266
000010 9b 3a 27 bc 12 44 21 3e 63 80 22 3e 97 f9 8a bc
       -0.010206844 0.15748623 0.15869288 -0.016964717
000020 d7 79 f5 3c 6c 47 10 3d de 0e 7c 3d 0c fb a5 3c
       0.029965324 0.035224363 0.061537616 0.02026131
000030 5b 0c a2 3c 78 3c 4e 3d 12 0d e3 3d 0e 76 d6 3d
       0.019781282 0.050350636 0.11086477 0.10471736
000040 73 62 e5 3c 1d 47 43 3d 58 ad ea 3d ed 58 8f 3d
       0.028001046 0.04767524 0.11458844 0.06999383
000050 e9 cd 95 3d 6e 22 4f 3d b3 33 0a 3d 6a 09 da 3d
       0.07314665 0.050569944 0.03374071 0.10646327
000060 a0 64 ae 3d 44 ad 8e 3c 0f 18 53 3e a8 99 20 3e
       0.085152864 0.017416604 0.20614646 0.15683615
000070 60 6c 2a 3d 2f a1 19 3e fc 02 9e 80 8c 8e cd 81
       0.04160726 0.15002893 -1.4511079e-38 -7.550965e-38
000080 18 53 b6 81 e5 3e a3 3d 30 de 14 3e d2 1e ff 3c
       -6.6975475e-38 0.079709806 0.14537883 0.031142626
000090 de 19 db bc 62 08 c0 3d 04 ff 16 bc 5e 76 a2 3d
       -0.026745733 0.09376599 -0.009216074 0.07932733
0000a0 dc ee 93 3d 0c b6 0a 3d c9 3c d3 3d b9 ec 6a 3d
       0.07223293 0.03386502 0.10314328 0.057354663
0000b0 87 57 89 3d 45 9c 87 bd b4 0f 97 3d b5 1d 9e bc
       0.06706148 -0.06621603 0.07376042 -0.019301275
0000c0 e6 f7 ae 3d af a7 be 3d f5 4b 2b 3d 47 0f 36 3d
       0.085433766 0.09309327 0.041820485 0.044448163
0000d0 6b 6e a2 3d 60 f5 ed 3d b9 ba 20 3e 57 53 84 bc
       0.07931217 0.11619067 0.15696229 -0.01615302
0000e0 44 36 7a 3a 83 15 11 3d 60 8d c8 3b c2 35 a4 3d
       0.00095448294 0.035420906 0.006120369 0.08018066
0000f0 85 55 d7 bc 87 4b ee 39 78 dd 8a 3d 2c a4 fd 3d
       -0.026285896 0.0004545117 0.06780523 0.12384829
000100 f1 90 d5 b8 18 6d d3 bb 97 a5 07 3e 9d 34 99 3d
       -0.00010183629 -0.006452214 0.13246761 0.07480738
000110 35 cf 41 3e cc 7b 9e 3d 21 f6 c7 3d c5 9a 25 3d
       0.189267 0.07738456 0.09763742 0.040430803
000120 61 9a 10 3e 2a 8d b2 3c 36 24 32 3d bb e7 92 3d
       0.14121391 0.021795828 0.043491565 0.07173105
000130 bf b9 df 3b 3d bf ff 3d 6d ed 81 bc ba 14 c1 3d
       0.0068275626 0.12487648 -0.015860284 0.094277814
000140 03 61 0f 3e ca 8f 78 3d 97 a8 3a 3d d1 cc 5c bb
       0.14001851 0.060684003 0.045570936 -0.0033691416
000150 92 7c fa bb 47 e6 8c 3d 8e db 21 3e 4b e6 1e 3d
       -0.0076442445 0.068798594 0.1580641 0.038793843
000160 ed 0c 0e 3e 09 3c 6d 3c bf 88 34 bc 53 53 99 3d
       0.13872118 0.0144796455 -0.011018931 0.07486596
000170 93 08 f7 bc e1 6d 13 bd f1 9e 75 3d 43 c2 33 3d
       -0.030155456 -0.03599346 0.05996603 0.043886434
000180 fb 14 22 3d ed 9c 95 3d 7f 11 90 3d 0e 5e 89 3d
       0.03957079 0.07305322 0.07034587 0.06707393
000190 82 88 1b 3e 90 85 d8 3b 41 03 41 3c 63 10 d6 3d
       0.15188792 0.0066077188 0.011780561 0.10452344
0001a0 4b dd c5 3d fa 4e b2 3c 9a 12 98 3b 5d f9 fb bc
       0.09661349 0.021766175 0.0046408894 -0.030758554
0001b0 3f bd 99 3d 5c 7d 1d bd ea 3a f6 3c ac db 81 3c
       0.07506799 -0.03844963 0.03005739 0.015851818
0001c0 d1 86 68 3d a1 b3 f4 3d 17 0b ba 3d 17 7a 53 3d
       0.056769196 0.11948324 0.090841465 0.051630106
0001d0 ca ce 3a 3d a0 32 de 3c 66 8b 35 bb 3e 0c 01 3e
       0.045607366 0.02712375 -0.0027701496 0.12602326
0001e0 2c a4 09 3e 71 71 9a 3d 0f 93 7e bb fe 4e ef 3d
       0.13441533 0.075411685 -0.0038844978 0.116849884
0001f0 4d 09 26 bd 45 2f 06 3e 06 16 0a 82 d0 7c 76 01
       -0.040536214 0.1310397 -1.0144959e-37 4.5272613e-38
000200 8a 8f b9 01 37 64 01 3e 1e 06 e6 bc 83 09 90 3d
       6.8164236e-38 0.12635885 -0.028079089 0.07033064
000210 d5 bf c4 3d 40 71 68 3c f4 74 e9 3d d2 e5 b7 3d
       0.096069016 0.014187157 0.1139926 0.089793816
000220 7b e2 a7 3d 21 b2 f5 3d c0 9b c1 3d 2a 00 2e bd
       0.081974946 0.11996866 0.09453535 -0.042480625
000230 a3 a3 57 3d 4b 78 b2 3d cf 18 9e 3d 5c 7c 8f 3d
       0.05264629 0.0871435 0.077195756 0.070061415
000240 0c f3 2a 3c 48 af bb 3d 29 f6 c5 3d b2 45 32 bb
       0.010433923 0.091642916 0.09666092 -0.0027202186
000250 39 b5 37 3d c2 f3 d9 3d f7 48 1a 3c 34 68 4d 3d
       0.04485056 0.10642196 0.00941681 0.050148204
000260 68 7b 8e 3c 76 b0 9f 3c 62 07 10 3e ef 8d fa 3d
       0.017392829 0.019493323 0.14065316 0.12234103
000270 e3 b4 53 3c ef da c5 3d b9 79 fd 3c 99 f1 b1 3d
       0.012921545 0.09660899 0.030941831 0.08688659
000280 95 92 5f 3d 9c c6 05 3d 36 da 8b 3d 5e 86 cc 3d
       0.05458315 0.03266011 0.0682873 0.09986566
000290 32 b2 cc 3c c1 19 a6 3d ac 20 63 3c f1 05 36 3e
       0.024987314 0.08110381 0.01386277 0.17775704
0002a0 db 7f c8 3c ae aa 92 3d f5 9c e1 3d 03 ec 8c 3d
       0.024475029 0.07161461 0.11016265 0.06880953
0002b0 34 0f a0 bc 58 57 8e 3d 57 67 bb bc 17 10 c4 3c
       -0.0195385 0.06950253 -0.022876425 0.023933453
0002c0 d0 46 63 bc 66 05 f8 3d bf 3b ec 3c 3c df b2 3d
       -0.0138718635 0.12110405 0.028837083 0.08733985
0002d0 a1 58 98 3d 88 65 08 3e 96 b9 20 3e 22 52 e6 3c
       0.074387796 0.13319981 0.15695795 0.028115336
0002e0 34 24 26 3e 6e e5 b8 3c b6 00 04 3e d6 06 01 3e
       0.16224748 0.022570338 0.12890896 0.12600264
0002f0 d3 43 32 3e 18 d8 77 3d eb ca 8e bb 8d 63 d6 3d
       0.17408685 0.060508817 -0.004357686 0.104682066
000300 62 7a 3d 3d 6e 72 76 3c d8 00 3a 3d ea d2 c3 bc
       0.04625929 0.015041931 0.04541096 -0.023904283
000310 85 ef d2 3d fd fd 0e 3e 2a 5a 0a 3e 0d 14 1c 3d
       0.10299591 0.13964076 0.13510957 0.03810506
000320 63 38 5c 3d 97 e7 99 3d 0b f6 08 bd c1 2a ca 3c
       0.053764712 0.075148754 -0.03343777 0.02467859
000330 83 01 bf 3d b4 af 3f bb d9 4c ee 3d 1e 19 3d 3c
       0.0932646 -0.0029249014 0.11635751 0.011541633
000340 c3 18 6f bc 60 5d 4b 3d 8e c2 e7 3b 5b b5 26 bd
       -0.014593306 0.049649596 0.0070727533 -0.040700298
000350 90 54 9c 3d 89 dc c6 3d fc 55 c9 3d 80 bf cf 3d
       0.076333165 0.097100325 0.09830853 0.101439476
000360 9d 4f e6 3c 93 a4 9d 3d 82 3d 28 3e 2f 9d 69 3d
       0.028114134 0.07697406 0.16429713 0.057034668
000370 51 7d c3 3d 1e 42 81 3c b6 23 13 01 1d 9b 94 81
       0.095453866 0.015778597 2.7025257e-38 -5.458919e-38
000380 34 b2 6f 81 13 44 f8 3d 4a 48 bf 3d 20 8f d9 3d
       -4.4025222e-38 0.12122359 0.0933996 0.10623002
000390 39 0f 43 3e e6 70 8d 3d 5a e7 7d 3d 05 1d ed 3c
       0.19048776 0.06906299 0.061988212 0.028944502
0003a0 8b 2d 20 3d c4 05 9d 3d 80 1e 01 3d d8 ce ee 3d
       0.039105933 0.07667115 0.031523228 0.11660546
0003b0 9d 6d b7 3d a1 14 06 3e 5d 81 c8 3d 21 77 11 3e
       0.08956454 0.13093807 0.09790299 0.142056
0003c0 87 62 f0 3d 99 a9 ab 3d 15 79 9d 3d 39 cf 88 3c
       0.117375426 0.083819576 0.0768911 0.016700374
0003d0 8e ea 8b bc b7 2b 56 3e 44 6d 04 3e 48 ea 9b bb
       -0.017079618 0.20915113 0.12932307 -0.004758153
0003e0 81 df 0f 3e 5a 94 8e 3d e7 c5 d9 3d 11 1e 48 3e
       0.14050104 0.069618896 0.1063345 0.1954272
0003f0 4d 55 80 3d f8 66 f9 3c 0d 17 f3 3d 04 4f 9a 3d
       0.0626627 0.030444607 0.11869631 0.07534602

tcn.network.1.conv.bias f4 [32]
000000 66 06 ae 3f ae c9 b8 3f 18 a9 ae 3f 5c c2 b3 3f
       1.3595703 1.4436548 1.3645353 1.4043689
000010 ca 4d c0 3f 77 a3 9d 3f 9c b2 b7 3f 9d 7e 75 9a
       1.5023739 1.231551 1.4351382 -5.076709e-23
000020 5e 1d 6c 3f 38 ee b8 3f db c0 b3 3f fe 5d 1b 33
       0.9223231 1.4447699 1.404323 3.6174235e-08
000030 78 54 b6 3f e6 c9 ab bb 23 0c c2 81 e3 03 b2 3f
       1.4244528 -0.005242574 -7.128176e-38 1.3907436
000040 ab 04 a1 3f 62 6f ae 3f c0 45 b8 3f 3c 7b a8 3f
       1.257955 1.3627741 1.4396286 1.3162608
000050 d6 4a ad 3f e7 3d b4 3f 3c d0 af 3f 9b ef 3b bb
       1.3538463 1.4081391 1.3735423 -0.0028676752
000060 a1 a7 ba 3f 6b 98 b6 3e 0a 60 29 b1 6e fd b3 3f
       1.4582406 0.3566316 -2.4647329e-09 1.4061716
000070 8c 47 ae 3f fb 8e a1 3f 7c bc a5 3f 1c 5b b1 3f
       1.3615584 1.2621759 1.2948146 1.3855929

fusion.0.weight f4 [32, 32]
000000 76 95 be 3d ba 8c 42 3e 93 b1 4b 3d 8e 47 3d 3e
       0.09305851 0.18998995 0.049729895 0.18484327
000010 ad d1 3d 3e 1a 04 c4 3d fc 46 0d 3e 10 99 6c 81
       0.18537016 0.09571095 0.1379661 -4.345617e-38
000020 0f c9 34 3e 0e f3 2d 3d c1 5d e9 3d 97 9c ef b9
       0.17654823 0.042468123 0.11394835 -0.000457023
000030 8f 75 6f 3e b9 58 14 3b c0 1c 9b 01 17 d0 ac 3c
       0.23384689 0.002263589 5.697926e-38 0.021095319
000040 7b 84 38 3e a4 ab 80 3d 7d 5a f6 3d 8e cf 5f 3e
       0.18019287 0.06282738 0.12028978 0.2185652
000050 57 be d1 3d 6c f8 3c 3e a1 fb e5 3d ca 3a de bb
       0.102413826 0.1845414 0.11229635 -0.0067819105
000060 96 8c 59 3e 80 53 b6 3d cc bb 03 8d b4 f0 c0 3d
       0.21245036 0.08902645 -4.0593544e-31 0.094209105
000070 17 ac 42 3e 48 dc 84 3e 33 6a 6e 3e 6c cf 1f 3e
       0.1901096 0.2594931 0.232827 0.15606469
000080 ef 4e b3 3d f3 3d d2 3d db 16 51 3d 5b 96 51 3e
       0.0875529 0.10265722 0.051047187 0.20467512
000090 1c 1c 47 3d a1 47 65 3b 17 7e 45 3e 25 0c ba a2
       0.04861079 0.003498532 0.1928638 -5.042826e-18
0000a0 46 c4 2e 3e e1 6b 4c 3e fc 6b 33 3e b1 a1 8f ba
       0.1706706 0.19963028 0.17521662 -0.0010958222
0000b0 fe 5f 67 3d ad 66 0b 3c 97 97 80 01 c0 22 90 3e
       0.05648803 0.0085083665 4.7237295e-38 0.28151512
0000c0 68 08 2e 3d e4 0e 6d 3e 38 a9 34 3e 85 05 0f 3e
       0.042488486 0.23150212 0.17642677 0.1396695
0000d0 96 78 52 bc c3 e3 46 3d 03 f8 5f 3e 05 9b 4b 3a
       -0.012846133 0.048557054 0.21871953 0.0007766935
0000e0 88 bf 08 3e 91 56 1c 3e a9 41 1b 17 58 e2 78 3e
       0.13354313 0.15267397 5.0166076e-25 0.24305093
0000f0 da 88 25 3e dd 89 3b 3e 6d 51 14 3e 4b 3c 2b 3e
       0.16165486 0.1831431 0.14484186 0.16722219
000100 61 e2 13 3e 3a 7e 42 3e b3 ff aa 3d a8 11 2a 3c
       0.14441825 0.18993464 0.08349552 0.010380186
000110 7a c5 95 3d 16 7e 2a 3e d4 f4 51 3e bd 0e 34 b0
       0.07313056 0.1664966 0.20503551 -6.5504563e-10
000120 9c 57 eb 3d 30 0c 8a 3e d7 d3 1b 3e 6b 27 93 ba
       0.114913195 0.26962423 0.15217529 -0.0011226957
000130 4a b4 4a 3e c6 ab 02 bc f0 0e 98 01 f2 dc 21 3d
       0.19795337 -0.007975524 5.5857416e-38 0.03951735
000140 ff c1 05 3e 02 1a aa 3d f3 fb 82 3d 69 7f 8a 3d
       0.13062285 0.08305742 0.06395712 0.06762583
000150 d1 53 bb 3d 86 d2 ea 3d c9 db 5e 3e 49 48 0e bb
       0.09146846 0.114659354 0.21763529 -0.0021710566
000160 1a 47 4c 3e b3 74 9b 3d 23 9a 8c 09 f2 6b 21 3e
       0.19948998 0.07590618 3.3848724e-33 0.15763834
000170 c4 9f 70 3e ae e5 87 3d 35 e3 27 3d df 00 3c 3e
       0.23498446 0.06635605 0.040988166 0.18359707
000180 8d 8c 37 3e a8 20 df 3b 9d 0b 26 3e 86 70 a3 3e
       0.1792471 0.006809313 0.16215368 0.31921786
000190 98 5f 00 3e 59 66 a8 3d 93 26 57 3e 40 6e 11 96
       0.12536466 0.08222646 0.21010809 -1.1747795e-25
0001a0 c0 5f eb 3d b9 61 5f 3b d8 5f 1a 3e e7 ea d4 3a
       0.11492872 0.0034085347 0.15075624 0.0016244323
0001b0 bc 2e 50 3d e1 ba 4d 3c 9b d0 ad 01 70 88 29 3e
       0.05082582 0.012556762 6.38495e-38 0.16555953
0001c0 e1 18 70 bc 44 e2 63 3e 44 69 6e 3e 3f b2 83 3e
       -0.014654369 0.22254282 0.23282343 0.25721928
0001d0 75 83 04 3e f6 24 03 3e 94 f6 03 3d 34 c5 6f bb
       0.12940772 0.12807068 0.032217577 -0.0036586048
0001e0 ef 62 35 3e 5f 1c f4 3d c8 5e 6f 21 78 33 b7 3d
       0.17713521 0.11919474 8.110179e-19 0.08945364
0001f0 31 6c 13 3e 9c 8e d0 3d 22 45 ee 3d 6c d5 6b 3e
       0.1439674 0.101834506 0.1163428 0.23030633
000200 77 89 39 3e dc 47 ad 3d b8 60 ac 3d 12 5c 41 3e
       0.18118845 0.08460972 0.08416885 0.18882778
000210 65 1f 3c 3e f6 fe cc 3d 2f 2b 3e 3e d2 de 46 b1
       0.18371351 0.100095674 0.1857116 -2.893945e-09
000220 4f 34 f6 3d 63 10 37 3e 31 36 19 3e a0 c1 1d 3a
       0.12021696 0.17877345 0.14962079 0.0006017927
000230 03 36 31 3e 50 7b 0d 3c bc dc 07 01 07 e3 39 3e
       0.1730576 0.008635357 2.4953953e-38 0.1815301
000240 66 0b 07 3d 4d df 3a 3e b1 d0 78 bc e7 9c 0f bd
       0.032969855 0.18249245 -0.015186475 -0.035061743
000250 b4 80 10 3e 3d 89 5c 3d 0e 37 f2 3d b8 1a 26 bb
       0.14111596 0.053841818 0.11826907 -0.0025345515
000260 57 90 47 3e 87 0b a7 3d d2 9f 7f 01 34 42 f4 3d
       0.19488655 0.081564955 4.6950768e-38 0.1192669
000270 4e 94 19 bd 4e 1b 68 3d 5d 18 76 3e bf 1e f2 3d
       -0.03749495 0.056666665 0.24032731 0.118222706
000280 56 ca 90 3d 72 07 0c 3e 02 b5 13 3e bb 90 f7 3d
       0.070698425 0.13674715 0.14424518 0.12088152
000290 ca 17 43 3e d1 a0 a8 3d f9 99 2c 3e 48 21 09 a1
       0.19052044 0.08233798 0.16855611 -4.6461453e-19
0002a0 bb eb 01 3e c2 30 1b 3e 88 a9 4c 3e 50 0a cf 3a
       0.1268758 0.15155318 0.19986546 0.001579592
0002b0 b7 16 55 3e fb ed 84 3c 93 48 8a 01 90 12 78 3e
       0.20809446 0.01622676 5.079733e-38 0.24225831
0002c0 09 40 a5 3c 7b 5f fd 3c eb dd 22 3e ea 9a 2a 3d
       0.020172136 0.030929318 0.15904967 0.041651644
0002d0 c7 c1 19 3e 17 68 d3 3d 27 23 08 3e 38 ce 3b bc
       0.15015326 0.10322588 0.1329466 -0.011462741
0002e0 67 ae df 3d 77 ce e3 3d c9 fa e3 10 56 97 82 3e
       0.109219365 0.111233644 8.992211e-29 0.25506085
0002f0 a8 d2 0f 3e 07 45 64 3e a4 3d 85 ba d8 66 00 3e
       0.14045203 0.22291957 -0.0010165465 0.12539232
000300 77 44 7e 3e 65 22 68 3e af 4b 1b 3e b7 75 64 3e
       0.24830805 0.2266937 0.1516559 0.2231053
000310 4c 19 00 3e 19 24 4b 3d b0 38 1a 3e ec 17 82 a4
       0.1250965 0.049594972 0.15060687 -5.641904e-17
000320 f2 41 0f 3e d5 48 11 3e 16 d5 22 3e c7 c1 a6 39
       0.1399 0.1418794 0.15901598 0.00031806363
000330 bf 8b 3d 3d 0d fe 19 bb f6 ee d5 01 e6 7c 43 3e
       0.04627585 -0.0023497373 7.8586735e-38 0.19090614
000340 11 5e e6 3d c9 2c 6b 3e 12 77 fa 3d 78 89 df 3d
       0.112484105 0.22966303 0.12229742 0.10914892
000350 69 f4 ee 3c 5c e8 0f 3e 92 6b ca 3c 75 31 fd bb
       0.029169278 0.14053482 0.024709497 -0.007726843
000360 2a 6a 0e 3e 93 03 ea 3d 17 3f 95 16 3e 2e 32 3e
       0.13907686 0.11426463 2.4112064e-25 0.17400452
000370 2f 96 4f 3e 9e 66 5a 3e b8 04 5e 3d 6b 43 d4 3d
       0.20272134 0.21328208 0.05420372 0.103644215
000380 a0 31 1b 3e fa 8f d3 3d 94 5d 0f 3e ba 76 c5 3d
       0.15155649 0.10330196 0.14000541 0.09641786
000390 c8 6c b0 3d 71 04 d8 3d 27 ef f7 3d 7f 6b 23 ad
       0.086144984 0.10547722 0.121061616 -9.289346e-12
0003a0 b0 ea 15 3e e0 a2 10 3e 11 6c 4d 3e 12 1a 33 bb
       0.14640307 0.14124632 0.20060755 -0.0027328772
0003b0 45 cf d4 3d c5 d0 34 3c bd 87 c3 81 5e df 69 3d
       0.10391096 0.011036103 -7.182646e-38 0.057097785
0003c0 62 46 83 3e fa 68 3e 3e 74 c8 ac 3d 9d 8e ab 3b
       0.25639635 0.18594733 0.08436671 0.0052355067
0003d0 6c 1f 4d 3e 81 3d c2 3d 5a 27 58 3e 7b d1 d6 ba
       0.20031518 0.09484387 0.21108761 -0.0016389334
0003e0 06 04 6e 3e 6e 4b 99 3d f6 9a a2 04 31 56 54 3e
       0.23243722 0.0748509 3.8228326e-36 0.20736004
0003f0 79 0e 2e 3c cf 05 cb 3d 4c 5a 03 3e bd a5 4a 3e
       0.010623568 0.09913217 0.12827414 0.19789787

fusion.0.bias f4 [32]
000000 96 2e 5f 40 09 ea 7a 40 cd 09 69 40 d4 1c 62 40
       3.4872184 3.9205344 3.6412232 3.5330095
000010 98 78 7c 40 63 7f 7b 40 49 c0 78 40 a2 32 6a 40
       3.9448605 3.92965 3.8867362 3.6593404
000020 de 96 54 40 8b 23 73 40 46 95 7c 40 a3 e4 7a 40
       3.3217082 3.7990444 3.946611 3.9202049
000030 98 f4 20 bc c2 45 81 40 4b 2a 7a 40 b5 04 5d 40
       -0.009823941 4.0397654 3.9088314 3.4534123
000040 02 ba 89 40 e3 dd 63 40 8a 36 83 40 77 1d 54 40
       4.303956 3.560418 4.1004076 3.3142984
000050 fe 86 6f 40 d3 6a 59 40 77 ae 7f 40 21 a8 7d 40
       3.7426143 3.397145 3.9950235 3.9633868
000060 38 b8 71 40 f4 2a 6a 40 41 5c 5a 40 01 9b 63 40
       3.7768688 3.6588717 3.4118807 3.5563357
000070 fe dd 81 40 d5 45 cb 85 4c 64 0d 02 97 e5 84 40
       4.0583487 -1.911568e-35 1.0387828e-37 4.153026

predictor.0.weight f4 [16, 32]
000000 23 fc 1c 3e 82 21 5a 3e 2a 49 9b 3e 6e fe 81 3e
       0.15330558 0.21301845 0.30329257 0.25389427
000010 28 cd 5a 3e 4c 92 7c 3e b2 ed 4f 3e 1e 27 99 3e
       0.21367323 0.24665183 0.20305517 0.29912657
000020 10 7d 51 3e 61 85 52 3e f6 46 2b 3e 56 0c 77 3e
       0.20457864 0.20558693 0.16726288 0.241258
000030 e0 c8 33 bc 80 3f 77 3e 85 a0 b0 3e 8b f6 35 3e
       -0.010973185 0.24145317 0.34497467 0.1776983
000040 26 04 a3 3e 31 b0 60 3e 2d 1e 33 3e a0 d4 27 3e
       0.31839103 0.21942212 0.1749198 0.16389704
000050 80 b6 88 3e 07 8e 7f 3e bc 57 62 3e 75 d0 4e 3e
       0.26701736 0.24956523 0.2210378 0.20196708
000060 f7 2e 8d 3e c0 c5 17 3e 59 21 79 3e c6 89 67 3e
       0.27574894 0.1482153 0.24329127 0.2261115
000070 8e 3d 87 3e 6b 40 89 38 56 f9 08 00 0c 29 75 3e
       0.2641415 6.544668e-05 8.24129e-40 0.2394144
000080 14 2e 9b 3e 6c e4 33 3e 4e 63 8a 3e 24 fb 8d 3e
       0.30308592 0.17567605 0.27028888 0.27730668
000090 ff 54 8b 3e 31 7c c7 3e 86 b5 5e 3e 23 d5 ce 3e
       0.27213284 0.38961938 0.21748933 0.40396985
0000a0 74 80 ad 3e c5 fa 90 3e f7 fb b4 3e f0 3d 61 3e
       0.33887064 0.28316322 0.35348484 0.21996284
0000b0 4e 32 5c bc ba be 92 3e 43 c8 9a 3e 47 2d 8f 3e
       -0.013439728 0.28661138 0.30230913 0.2796423
0000c0 26 ea 8b 3e 96 a0 be 3e 84 18 95 3e 28 e9 6e 3e
       0.2732708 0.37231892 0.29120266 0.2333113
0000d0 84 f3 84 3e 80 fe 82 3e ed 85 7b 3e f8 6c 6d 3e
       0.25967038 0.25584793 0.24562807 0.231861
0000e0 12 c4 64 3e 96 da 4d 3e c9 c7 95 3e 24 8f 9d 3e
       0.2234042 0.20102915 0.29253986 0.3077327
0000f0 43 d3 c1 3e de 7a 87 b6 85 fb bb 80 16 67 7d 3e
       0.37856492 -4.037617e-06 -1.7263466e-38 0.24746355
000100 9b 64 b3 3e 6f 8b 64 3e 83 24 6b 3e f9 d2 a2 3e
       0.35037693 0.22318815 0.22963147 0.31801584
000110 c6 be 61 3e af a9 3f 3e 60 fd 67 3e 69 50 5d 3e
       0.2204543 0.18717073 0.22655249 0.21612705
000120 22 7c 6d 3e 4c bd 33 3e 8b f3 78 3e 80 69 80 3e
       0.23191884 0.1755268 0.24311654 0.2508049
000130 cd b4 6b 3c 49 96 86 3e e9 28 3e 3e d5 56 39 3e
       0.014386368 0.26286533 0.18570293 0.1809953
000140 28 59 a1 3e 83 3b 3e 3e 94 8a 8e 3e d3 8e 96 3e
       0.31513333 0.1857739 0.27840102 0.2940584
000150 83 ee 4d 3e 48 01 65 3e 44 23 55 3e db 33 a6 3e
       0.20110516 0.2236377 0.20814234 0.32461438
000160 97 b6 7e 3e d9 51 4f 3e f5 c4 4c 3e a0 3b 89 3e
       0.2487434 0.20246066 0.19997008 0.26803303
000170 5e 82 77 3e 50 d6 c1 b7 1c 70 85 01 90 f3 69 3e
       0.24170825 -2.310719e-05 4.9017353e-38 0.22846818
000180 9c 97 94 3e cc ea 92 3e 98 3b af 3e 85 34 93 3e
       0.2902192 0.2869476 0.34225154 0.28751007
000190 43 5d ae 3e 2d 86 95 3e 44 4c 80 3e 08 88 53 3e
       0.34055528 0.2920393 0.25058186 0.2065736
0001a0 5d 52 41 3e 9d 33 98 3e 0b 0e 47 3e a1 74 ac 3e
       0.18879075 0.29726878 0.1943895 0.3368273
0001b0 d1 03 05 3c 63 8e 9a 3e f1 ae af 3e 02 a2 7e 3e
       0.008118586 0.30186757 0.34313157 0.24866489
0001c0 5a 40 8b 3e 28 f4 8b 3e 65 5f 96 3e 50 3c 42 3e
       0.27197534 0.27334714 0.29369655 0.1896832
0001d0 be b8 82 3e 82 5c 9e 3e 77 57 98 3e 6a 6d a8 3e
       0.25531572 0.30929953 0.2975423 0.32895976
0001e0 0b 17 82 3e 35 2f 8f 3e 9a 45 80 3e 6c bc 95 3e
       0.25408205 0.27965704 0.25053102 0.29245317
0001f0 46 f2 9f 3e 2d bf 3b 36 98 31 2b 02 e7 38 c4 3e
       0.31239527 2.797645e-06 1.2577329e-37 0.38324663
000200 dd fd 84 3e a9 f0 cd 3e ed 67 97 3e 63 d8 b3 3e
       0.25974932 0.40222672 0.29571477 0.35126027
000210 24 6d a1 3e 58 62 a2 3e 74 30 81 3e 6b 30 8d 3e
       0.3152858 0.31715655 0.2523228 0.27576002
000220 33 b0 a3 3e 4d 77 43 3e 59 a0 65 3e 54 10 b8 3e
       0.31970367 0.19088478 0.22424449 0.35949957
000230 fa 79 78 3c 4a c3 90 3e e8 e9 7f 3e 85 71 8b 3e
       0.0151658 0.28273994 0.24991572 0.27235046
000240 2f e0 89 3e 40 c7 7d 3e 77 8e a2 3e ba ba b3 3e
       0.2692885 0.24783039 0.31749317 0.351034
000250 95 3e b2 3e 2d 27 5c 3e 03 af 9c 3e ef 0c 81 3e
       0.3481337 0.2149932 0.30602273 0.2520518
000260 cc 18 80 3e 6b 57 ea 3e 56 d3 9b 3e ad 7c cc 3e
       0.2501892 0.4576982 0.30434674 0.3993887
000270 44 e6 94 3e 7b dc dd b6 c6 27 5c 80 c2 af 9b 3e
       0.2908193 -6.6119806e-06 -8.463134e-39 0.3040753
000280 6f ee 4f 3e 8e 5a c4 3e ff e9 71 3e d8 5c 8d 3e
       0.20305799 0.38350338 0.23624419 0.27609897
000290 1e bb a1 3e 0b 1f ab 3e 69 14 81 3e bd 7b 5b 3e
       0.31588072 0.3342212 0.25210884 0.21433921
0002a0 b2 50 7e 3e 54 fd 81 3e 5d 2d 89 3e 74 9e 73 3e
       0.2483547 0.25388587 0.26792422 0.23790914
0002b0 c4 9c 89 3c dc 20 93 3e be c4 85 3e 7c 86 66 3e
       0.016798384 0.28736007 0.26126665 0.22512239
0002c0 21 35 ac 3e 6e 7b 86 3e a7 dc 90 3e dd 0b 9d 3e
       0.33634284 0.26266044 0.28293344 0.30673113
0002d0 9c e6 64 3e 61 bf 1d 3e dc 47 be 3e ef d6 82 3e
       0.22353595 0.15405037 0.371642 0.25554606
0002e0 18 0a 26 3e 56 32 a5 3e 1c 2a 8a 3e 4d f1 3c 3e
       0.16214788 0.32264966 0.26985252 0.18451424
0002f0 6a 24 58 3e c7 0b 08 b6 b0 8b e3 01 54 ed 6e 3e
       0.21107641 -2.0272435e-06 8.358707e-38 0.23332721
000300 db 2f 70 3e c2 e7 85 3e 03 14 4a 3e b9 0a 57 3e
       0.23455755 0.2615338 0.19734196 0.21000184
000310 95 5b 5e 3e 88 59 88 3e 9c e7 38 3e 06 b9 4d 3e
       0.21714623 0.26630807 0.18057102 0.20090112
000320 5d 0a 8e 3e 8a 41 bb 3e 26 f8 2a 3e e7 e9 bd 3e
       0.27742282 0.3657344 0.16696224 0.37092516
000330 c9 8c bf 3b e1 ae aa 3e 84 4b 43 3e 78 e6 3e 3e
       0.0058456403 0.33336547 0.19071776 0.18642604
000340 87 a0 a1 3e 73 0c 92 3e 8f 5e 72 3e e9 98 92 3e
       0.31567785 0.28525123 0.23668884 0.28632286
000350 26 01 97 3e bd 36 2f 3e cd e4 6c 3e 55 64 fd 3d
       0.29493064 0.17110725 0.23134156 0.123726524
000360 9c 57 86 3e bf 61 76 3e d6 9d 21 3e 29 9d 30 3e
       0.26238716 0.24060725 0.15782866 0.17247452
000370 24 69 8e 3e 56 62 5c b7 a7 e1 b9 01 b8 69 91 3e
       0.2781459 -1.31359175e-05 6.828206e-38 0.2840097
000380 a7 33 ba 3e 80 e4 5e 3e ea 19 35 3e b9 5c 75 3e
       0.36367533 0.21766853 0.17685667 0.23961152
000390 2d a5 b0 3e 82 35 ad 3e b7 2b aa 3e b5 40 8b 3e
       0.3450102 0.33829886 0.33236477 0.27197805
0003a0 06 bb 47 3e 38 65 7a 3e b3 4f af 3e 2a ed 82 3e
       0.19504938 0.24452674 0.34240493 0.25571567
0003b0 00 e6 68 3c 2f 24 92 3e ae a0 91 3e a9 e3 50 3e
       0.0142149925 0.2854323 0.284429 0.20399345
0003c0 3c de c8 3e 18 c7 2c 3e 5d 26 ab 3e 7c 51 25 3e
       0.3923205 0.16872823 0.33427706 0.16144365
0003d0 64 47 87 3e b1 e7 8a 3e 9f ff 8c 3e d6 81 9d 3e
       0.26421654 0.27129892 0.27538773 0.3076312
0003e0 58 14 b0 3e fe 04 70 3e 70 07 8a 3e a6 6c a0 3e
       0.3439052 0.23439404 0.269588 0.31332892
0003f0 12 d1 94 3e 9d bc 6f b6 bf 86 03 01 4a 3c 8f 3e
       0.29065758 -3.5723563e-06 2.4157576e-38 0.27975684

predictor.0.bias f4 [16]
000000 a4 13 a4 40 68 39 94 40 ca a6 92 40 62 c2 a5 40
       5.1273975 4.6320076 4.58286 5.1799784
000010 be 8e 9a 40 26 0e 95 40 85 4a b6 40 54 ec ac 40
       4.8299246 4.657977 5.6965966 5.4038486
000020 12 07 90 40 ed dd 9f 40 20 47 bf 40 f6 2c 8e 40
       4.500863 4.9958405 5.9774323 4.4429884
000030 79 56 92 40 12 70 92 40 d3 64 96 40 c2 a2 a7 40
       4.5730557 4.5761805 4.6998076 5.238618

predictor.3.weight f4 [1, 16]
000000 5c da f0 3e b4 ea cc 3e 6e 14 e3 3e 50 cb d6 3e
       0.47041595 0.40022814 0.44351524 0.4195199
000010 31 85 c1 3e 44 94 de 3e ed 92 e2 3e 3a 34 cc 3e
       0.3779693 0.43472493 0.4425272 0.39883596
000020 63 a7 b9 3e 58 69 c2 3e 0d f1 f0 3e a6 b9 cd 3e
       0.36260518 0.37970996 0.47058907 0.401807
000030 33 18 b9 3e 4e 85 eb 3e 26 3d ec 3e a4 bf ec 3e
       0.36151275 0.4600014 0.46140403 0.4623996
