backend/ml_pipeline/models/stgnn_best.pth (torch, 39202 bytes, 13 tensors)

gcn_layers.0.weight f4 [5, 16]
00000000: 6075 993e 46ad 963e 9ad1 9abd bacd 0f3f
00000010: 372e 8ebc 0e18 903d 28c7 0ebe 7711 b33e
00000020: 6ec4 ab3e 97d5 a7be 6b7e 0f3f a586 063e
00000030: f1ee f53e 270f 183e f14d 9a3e 837e a1bd
00000040: 4aa8 e63e b751 483e 5263 70be 8c56 f73c
00000050: ecdb a4be bc66 a0bd 8b7e 9dbe 43cb bc3e
00000060: f905 b9be 7d3e b0be 99b4 9cbe f930 02bf
00000070: 9f6e 87bd e6ab 0fbf bc81 c33e e3b9 e1be
00000080: 29ea 143f eac3 c43e 8d94 983b bbd1 533d
00000090: e960 9a3d 182e f83e 1b4a 983d 1cd7 b6bd
000000a0: c185 ee3d 76e7 5abe ff29 083d 53cf 573e
000000b0: 1b46 2e3d cf86 283c 4919 083d a436 133e
000000c0: 77e3 ad3d 8854 4abe 5b58 87be 5fb6 8cbd
000000d0: e777 6abe debc 2f3e 7f0e b03d 5f4b f53d
000000e0: fda3 4d3e c0de 403d 674c 513e 1a78 60be
000000f0: 9f3a 54bb e50e 02be d9f2 903d 7664 7abd
00000100: 78b3 313e 0040 0ebe b7fe be3e 438d a3be
00000110: 5e15 8abe da58 9abe 1828 ec3e b390 d43d
00000120: 3eee ae3e 415e c3be 1613 01bf 4493 a6be
00000130: 2f27 b1be a2e2 213e 2fb6 5a3e 85d0 a73e
0.29972363 0.29429072 -0.075595096 0.5617329 -0.017356021 0.07035838 -0.1394316 0.34974262
0.335483 -0.32780144 0.56052274 0.131373 0.4803386 0.1484953 0.3013759 -0.07885458
0.4505027 0.19562422 -0.23475388 0.030192636 -0.32199037 -0.07832095 -0.30760607 0.36873826
-0.3613737 -0.34422675 -0.30606535 -0.50855976 -0.06612896 -0.5612167 0.38184917 -0.44087133
0.581698 0.3843072 0.0046563805 0.051713686 0.075380154 0.48472667 0.074360095 -0.089277476
0.11646605 -0.21377358 0.033243176 0.21075182 0.042547327 0.010286047 0.03322724 0.14376312
0.08490651 -0.19758809 -0.26434597 -0.06870722 -0.22897302 0.17161891 0.08596515 0.119772665
0.20082088 0.04708743 0.20439301 -0.21920815 -0.0032383574 -0.12700994 0.070775695 -0.061130963
0.17353618 -0.13891602 0.37303707 -0.31943712 -0.26969427 -0.30145913 0.4612434 0.10379162
0.3416614 -0.38157848 -0.5041975 -0.3253423 -0.34600207 0.1580911 0.2135856 0.32776275

gcn_layers.0.bias f4 [16]
00000000: 3d4a 90bd aa76 e0bd da97 de3c 38ba 453e
00000010: eb3a 133d 14e6 b9bd 564e bf3d 9067 163e
00000020: 870a 163e f4be 2c3d 3e9a 223e f2e1 2e3d
00000030: 0464 303e 70d9 cb3d d0f9 303e 8fac ff3d
-0.0704541 -0.109601334 0.027172018 0.19309318 0.03594486 -0.09077087 0.09341113 0.14687943
0.14652453 0.042174295 0.15879151 0.042695947 0.17225653 0.09953582 0.17282796 0.12484085

gcn_layers.1.weight f4 [16, 32]
00000000: 8ca9 40be efab 73be aeed 423e ccbf 6fbe
00000010: f908 3c3e 6f53 15be 182f 2d3e 0269 abbe
00000020: 188d 88be d33c 653d 56c8 b83d 9a33 77be
00000030: 992f 3b3e 2043 6a3e 6118 a1be 5cd0 4fbe
00000040: aff0 903e 4641 24be be07 2cbe 6eb1 ebbe
00000050: 5d5a 60be 16d7 7abb 8fc8 b4bd 37e5 7dbe
00000060: 49ab 92bd 072f 80be 7d12 99be 0050 48be
00000070: 3fae a5be deeb aebe 87fc 973e db8d b7bb
00000080: af59 fe3d 7304 a8be cc7a 4fbe 34ac 2ebe
00000090: 5d2f 8a3d 747c 84be 67a3 0abe edc7 61be
000000a0: 8872 5cbd c22d e2bd 07cd aabb 6897 7abe
000000b0: cc0c 63be 4d24 41be 4c87 39be 6e57 8abe
000000c0: 3fe7 973e 6501 b8bd da91 9b3e 7faf de3d
000000d0: cf06 8bbe 43d6 673e 62f3 b8bd 19f4 f5bd
000000e0: f08e a6be 4124 a4be 8648 1c3e 678d 9ebd
000000f0: e9d3 053e 3c3e c7be 630c 903e f06b 76be
00000100: 28f1 a0bd 37f1 653c bda5 2a3e fddf 8e3e
00000110: 48dc 9c3e 16e3 1ebe 5e7c a13d db25 f6bd
00000120: fa2f 76bd ca1f 5bbe 474f 983e fd92 e9bd
00000130: 5af3 453e b03f c83d b968 953d d2a9 37be
00000140: 03f0 8b3e 2b10 1e3d c320 a53d ec22 2abe
00000150: 0a74 0e3e 7c8e 4e3d b646 1cbe e921 8a3e
00000160: 46ed 8c3d 6d68 50be 5bd9 1cbe 6b4e d7bc
00000170: 0e0e 1c3e eb16 91bd e458 3ebe 9e0d 00be
00000180: 3e35 44be 0ff1 2c3e 0cab a93e 447b 5bbe
00000190: 9cd4 103e d94a 4c3e 6214 eb3d a8be 8cbd
000001a0: 5598 6f3e 114a 6e3e a59e 4c3e f386 cabc
000001b0: f242 c2bc b3d3 ad3d 1bb7 8cbc 106b 50bd
000001c0: 8104 893e d1ae aa3e e196 2a3c 9707 40bb
000001d0: 48e1 b03d 4bf4 8d3d 26ac 123e 1eee 193e
000001e0: 4428 88be be43 86bd ef89 b53e f081 5c3e
000001f0: 2d2a f83c 944e 0ebe 09f6 1ebe 67de 40be
00000200: d869 6bbd e3b9 f43d 92c4 793e d03c 3a3e
00000210: 0f8f 85be 536c f9bd a60e 77bc a9dd b63e
00000220: dd80 553d c45e 6ebd d74a 2b3e 64ba 1cbd
00000230: 8177 43be bec9 8d3e 3756 dbbd abeb 5abd
00000240: e723 a4be 896e 803e 442e 913e bb20 2f3e
00000250: b433 42be 563b 74be 7627 6bbe 8f9b 903e
00000260: c1d7 403e 1969 a23e 4206 4e3e de15 023e
00000270: f54c 243c a59d 1ebe 49e2 6abe 38ad 35be
00000280: 5270 0e3e 3f6e 0fbe a492 82bd d26d 5bbe
00000290: 6873 a9bd 8139 86be 7480 84be 73f8 903d
000002a0: d2dd 06be 5d8f 393e 5647 d0bd 7d29 adbe
000002b0: a235 81bd d370 2dbe 7925 e2bd 7134 9fbe
000002c0: 43d8 433e 92bf 8abe d9cf 1c3e dd71 a93d
000002d0: 6a00 803e d234 63be 3f3d 593e 09bd 1cbe
000002e0: 9755 ae3d 75aa a43e 6cda 47bd 50a2 913c
000002f0: 6ab0 c1bd 6e7d 9abe c6d9 0f3e 3e9d bcbe
00000300: c054 833e d741 973e 8a4f ca3e d7f2 803d
00000310: 14a2 2dbe 8eba 513e 1d2f 933e 040c 02be
00000320: b51f ae3d 0b5b d5bc 2496 023d daaa 183d
00000330: afc6 2b3c 4299 69bd 1231 9bbe 9291 be3e
00000340: 0883 a03e de29 09bc a1db 333e a420 66ba
00000350: 4085 89be a319 6ebd 2386 3e3e fb34 0ebe
00000360: 411a 28be 01b8 6e3d 0db7 9d3d 7483 82bd
00000370: 6c33 493d 9ef0 8d3b e1ca 7dbd 04a2 dabd
00000380: 4a22 63be 250a ac3e 7c97 bcbd 2744 293e
00000390: 7a9f b4bd 09b8 903d fece b83e 1a98 533e
000003a0: 7046 82be 9a69 383e 99a4 b83e 9fa7 bd3d
000003b0: 23b4 923e b035 ba3e 7369 79bc 63f1 113e
000003c0: 1df9 55be 6bb9 3abd f755 973e 9e91 4d3e
000003d0: 0389 32be 78ea 21be 982d 2bbe dc98 93be
000003e0: 7583 72be ee0c eabc 64e9 843e 211e cc3d
000003f0: e3b6 4fbe 6232 76be b5d3 483e 46a0 4dbe
-0.18814677 -0.23796056 0.1903598 -0.23413008 0.18362798 -0.14582609 0.16912496 -0.33478552
-0.26670146 0.05596621 0.09022586 -0.24140778 0.18279876 0.22877169 -0.31463912 -0.20294327
0.28308627 -0.16040525 -0.16799828 -0.46033806 -0.21909471 -0.0038275174 -0.08827316 -0.2479447
-0.07161576 -0.2503588 -0.29896918 -0.19561768 -0.32359502 -0.34164327 0.2968485 -0.0056016273
0.124194495 -0.32815894 -0.20261687 -0.17057878 0.06747315 -0.258762 -0.13538896 -0.22048922
-0.053820163 -0.11043884 -0.0052124294 -0.2447182 -0.2217285 -0.18861504 -0.18118018 -0.2701983
0.29668614 -0.08984641 0.30384713 0.10873317 -0.27153632 0.22640328 -0.090307966 -0.120094486
-0.32530928 -0.3205891 0.1526204 -0.07741814 0.13069119 -0.3891467 0.2813445 -0.24064612
-0.07858497 0.014034561 0.16664787 0.27905264 0.3063681 -0.15516314 0.07885049 -0.12018939
-0.060104348 -0.21398845 0.29747984 -0.11404989 0.19331113 0.097777724 0.07295365 -0.17935875
0.27331552 0.038589638 0.080628894 -0.16614884 0.13911453 0.050428852 -0.15261349 0.26978996
0.06881194 -0.20352335 -0.1531729 -0.02628251 0.15239736 -0.070844494 -0.18588597 -0.12505195
-0.19160935 0.16888832 0.3313831 -0.21433741 0.14143604 0.19950427 0.11478497 -0.06872302
0.23397954 0.23270442 0.19982393 -0.024722552 -0.023713563 0.08487644 -0.017177155 -0.050883353
0.2676125 0.333365 0.010411949 -0.00293014 0.08636719 0.06931361 0.14323482 0.15032241
-0.2659322 -0.065558895 0.35456797 0.21533942 0.030293548 -0.13897163 -0.15523542 -0.1883484
-0.057473987 0.119495176 0.24391392 0.1818726 -0.26085708 -0.12178864 -0.015079176 0.35715988
0.052124847 -0.058195844 0.16727768 -0.038263693 -0.19088556 0.2769298 -0.107098036 -0.053447407
-0.3205864 0.25084332 0.2835561 0.1710233 -0.18965036 -0.2385076 -0.22964272 0.28243682
0.18832304 0.31720808 0.20119575 0.12703654 0.010028114 -0.15489824 -0.22937883 -0.17741859
0.13910034 -0.140069 -0.06375626 -0.21428612 -0.08273965 -0.26215747 -0.25879252 0.07078638
-0.13170555 0.18121095 -0.10169856 -0.33820716 -0.06309058 -0.1693757 -0.110423036 -0.31094697
0.19125466 -0.27099282 0.15313663 0.08273671 0.25000316 -0.22188118 0.2121477 -0.15306486
0.08512419 0.32161298 -0.048792288 0.017777592 -0.094574764 -0.3017382 0.14047918 -0.36838716
0.25650597 0.2954242 0.39513808 0.06296318 -0.16956359 0.20481321 0.28746882 -0.12699896
0.085021414 -0.02604439 0.031881467 0.03727231 0.010484382 -0.057030924 -0.30310875 0.37220436
0.3134997 -0.008371798 0.1756425 -0.00087786675 -0.26859474 -0.058129918 0.18605857 -0.13887398
-0.16416265 0.05828095 0.0770093 -0.06372729 0.049121305 0.0043316623 -0.06196106 -0.10675433
-0.22181049 0.3360149 -0.09208581 0.16529904 -0.0881948 0.07066352 0.36095423 0.20663491
-0.25444365 0.18009034 0.36063078 0.09260487 0.28653058 0.36369085 -0.015222895 0.14252238
-0.2089581 -0.045586985 0.29557773 0.2007508 -0.17435078 -0.15812099 -0.16716611 -0.2882756
-0.2368296 -0.028570618 0.25959313 0.09966684 -0.2028461 -0.24042657 0.1961201 -0.2008067

gcn_layers.1.bias f4 [32]
00000000: a55e 973e 5155 703e ed57 763e 8ba7 723e
00000010: 61c6 863e c7c3 8d3e 02b5 863e 1910 7e3e
00000020: 7832 6e3e e34f 793e cc4a 683e ed63 893e
00000030: de1f 883e edf9 813e b902 723e f0cd 823e
00000040: 8cbc 673e 95c1 743e 74c5 803e 017f 733e
00000050: 100d 843e a3bc 953e b6bb 883e ea64 813e
00000060: 5b6d 5b3e f1cd 713e 3dec 813e e4b5 8f3e
00000070: ac9a 853e 8fe1 8c3e 047c 753e 05fe 9e3e
0.29564396 0.23470046 0.24056979 0.23696725 0.26323226 0.2768843 0.26309973 0.24810828
0.2326144 0.2434688 0.22684783 0.2683405 0.26586813 0.2538599 0.23633851 0.25547743
0.22630519 0.2390197 0.25150645 0.23778917 0.25791216 0.2924548 0.26705712 0.25272304
0.21428435 0.23613717 0.25375548 0.2806846 0.26094568 0.27515838 0.2397309 0.31053177

tcn.network.0.conv.weight f4 [32, 32, 3]
00000000: 4dc3 353d fd7c f83d 96e7 313d 4f67 0fbd
00000010: 99a1 b53d 6ba7 1ebc ce7e 8d3d 29e8 9a3d
00000020: 102f a03c c3cb c13d e706 bf3d d934 ed3d
00000030: 4ceb 433e 63f2 083e 1d08 0e3e 0ebd 083e
00000040: ff51 4b3e 9c17 f43d 7616 133e 3576 a83d
00000050: bda7 d83d 2818 083e 4da0 3a3e 21fe 8e3d
00000060: bf24 133e bc78 e93d 1435 0e3e 7be5 ad3d
00000070: f0fd c63d dfbe f03d baa2 40bd 8999 a73d
00000080: 8c7b a03c c85d 613e 76d0 773e 3d35 2b3e
00000090: 7501 aa3d c36c c43d b798 d33d cc1a 623d
000000a0: 839f 043e 4e9f d53d 7ba6 1f3d 2a05 ff3d
000000b0: 14b3 4a3d 8bcf 053d 3d91 f03d fed7 443d
000000c0: ff3f 6e3d 3a88 7abc 3f67 aa3d c7bc dc3d
000000d0: d63a ca3d 8bbe dd3d 2c2a 9f3d 1aec 1b3e
000000e0: 9d15 853d 7bce c73d ab5c 2c3e 1e85 813d
000000f0: 225d c43d 2427 8d3d 1046 5d3d 8436 093e
00000100: 197d 3f3e 36fa 163e 8d8a 683d c643 413e
00000110: 0e7b 893d 1646 e93d f04f da3d 7816 e93d
00000120: 9673 a73d 0941 683d ff2b b13d f068 923d
00000130: ab5a 123e d59c 6b3d fbc3 003e fd2d 233e
00000140: bcb8 063e 994f 1b3e 5405 f13d 4901 153e
00000150: 14f6 593d 5b75 e63d 58ec 983d 02d5 f53d
00000160: 1ea1 1e3e 3a5d 103e 32b3 edbc 47ae 103d
00000170: 891f 8cbc 65af be3d 0e72 113e fb88 033e
00000180: 6ae1 dcbc a7ac 043e d711 f03d 567c 193e
00000190: d43e 053e ccc2 343e e228 de3d c47f 163e
000001a0: eb4b 243e 7700 0d3e 2d7e ee3c 0f97 2e3e
000001b0: b991 1b3e f5e6 d13b 0bce 353d d828 15bb
000001c0: 62c2 1f3e 8dd9 b33c a091 053e c378 063e
000001d0: 066a b03c ede4 de3d d15f f63d 7b63 e43d
000001e0: be5a 133e be47 f8bb 0b52 333e 1b92 153e
000001f0: 12b3 093e 08d8 cabc 822b ac3c 958f 523d
00000200: 6cec 4b3d a17f 0a3e 7f77 163e 1ae9 343e
00000210: 31f2 4b3d f80e 043e 3ebc 073e 6b9a 1b3c
00000220: 2648 b53c 2e01 ea3c 7093 1f3e 9225 563d
00000230: 49a0 793c 0f17 1e3e eeb3 433e 3cb1 273e
00000240: bed6 34bb 7dbb a13c cb4b eb3d c821 383e
00000250: 19de 5b3e 6392 e63d b30e b93d ada6 4e3e
00000260: 4170 83bc 457a 943d 5a7b 333e e7b6 4e3d
00000270: c3b3 143d 6943 483e 8518 e03d 5b5c 293e
00000280: 80fa 163e bde8 203e 7f64 313e 4a76 d23d
00000290: ff52 bc3d 2991 e33d e2f1 163d 32c8 2a3e
000002a0: f108 543c 9f2f 603d 34c9 573d 701d 923c
000002b0: 5ae2 eab9 41a9 c73d 6f41 973d 4f13 b43c
000002c0: 8698 663c f6c9 583e c9b2 253e a803 2e3e
000002d0: 6475 a6bb b258 823d 6644 b13d baeb 1b3e
000002e0: 39f0 273e ce92 443e 647f 9e3d 45bf 9f3d
000002f0: d030 c03d efda ae3d 8f64 613e b3af 373e
00000300: 012a 393b d71c 373d 67a8 f33d efcf 5b3d
00000310: c316 6b3d 6056 1f3e 951e ed3c 1ab1 253e
00000320: cb13 013e 8151 0abd 2bd0 033e 2310 013c
00000330: c5ad 133d 1da6 703d 437e b63c 51fa 413e
00000340: 0885 fa3d 51a8 fe3d 6cd1 d53c f9cf 343e
00000350: 7959 5b3d e8a9 7f3c 2928 273e e61e ce3d
00000360: e2e4 193e b2a6 603d 492d e63c b211 703d
00000370: 6837 013e d0cf df3d 5b88 bb3d e13a 3d3d
00000380: 09e4 fa3d 859b 383e b7b6 073e 85e1 173e
00000390: e235 173e 1ffb 493e ab0a 333d 28f4 413d
000003a0: 3c7f d13d a65e c53d f81f e43d f520 a43d
000003b0: 41cd 0c3e 6d59 193d aa3a 423e b20a 783d
000003c0: bd01 91bc 913e 003d 05bc cbbc 985c 0c3e
000003d0: 887c 4f3d e80f c43d 28dd c73d d4eb b03d
000003e0: 03c5 ab3d 5146 433d d571 393d bcd2 9f3c
000003f0: 2b70 1b3d bcea 933d 9524 ab3d 2e61 123e
0.044375706 0.121332146 0.04343375 -0.035010632 0.08868713 -0.00968347 0.06908952 0.07563812
0.019553691 0.094626926 0.093274884 0.115823455 0.19132727 0.13373713 0.13870282 0.13353369
0.19855498 0.11918566 0.14364037 0.08225671 0.105788685 0.13290465 0.18225212 0.06982065
0.14369486 0.113999814 0.13887435 0.084910356 0.097164035 0.11755156 -0.04703019 0.081835814
0.019590162 0.22008431 0.24200615 0.16719528 0.08301059 0.09591057 0.103318624 0.055201337
0.12951474 0.104307756 0.038977128 0.12452157 0.04948719 0.03266863 0.11746452 0.04805755
0.0581665 -0.015291268 0.08320474 0.10778194 0.09874503 0.10827359 0.077717155 0.15226784
0.06498263 0.0975618 0.16832225 0.06324218 0.09588076 0.06892231 0.054021895 0.13399702
0.18700065 0.14743885 0.056772757 0.1887351 0.06712924 0.11390321 0.10659778 0.11381239
0.08176343 0.056702647 0.0865097 0.071489215 0.142924 0.057522614 0.1257476 0.15935512
0.13156408 0.15167083 0.117685944 0.14551271 0.053213194 0.112528525 0.07466954 0.12003519
0.15491149 0.14098063 -0.029016111 0.035322454 -0.01710488 0.093107976 0.14203665 0.12845223
-0.026962955 0.12956487 0.11722153 0.14988837 0.13012248 0.17652434 0.108476415 0.14697176
0.16044585 0.13769709 0.0291129 0.17049812 0.15192308 0.006405706 0.04438595 -0.002275994
0.15601495 0.021954322 0.13043833 0.13132004 0.02153493 0.10883508 0.12029994 0.11151787
0.14390084 -0.0075769117 0.17511766 0.14606516 0.13447216 -0.024761215 0.02101684 0.05140646
0.049786016 0.13525249 0.14694022 0.17667046 0.04979152 0.12896335 0.13255402 0.009497265
0.02212913 0.028565016 0.15583587 0.052281924 0.015235969 0.15438484 0.19111606 0.16376203
-0.0027593817 0.019742722 0.11489066 0.17981637 0.21471442 0.1125839 0.09036007 0.2018077
-0.016044738 0.072498836 0.17527524 0.050467398 0.036304247 0.19556965 0.10942177 0.16539137
0.14743996 0.15713783 0.17323492 0.10276468 0.09195518 0.111116715 0.03685177 0.16677931
0.012941585 0.054732915 0.052682117 0.017836303 -0.00044800603 0.097490795 0.07385527 0.021981863
0.01407445 0.21170792 0.16181482 0.16993582 -0.005079912 0.063645735 0.08655624 0.15226641
0.16400231 0.19196627 0.077391416 0.07800154 0.0938431 0.08537852 0.22011016 0.17938118
0.0028253796 0.04470524 0.118973546 0.053665098 0.057394754 0.15560293 0.028945247 0.1618084
0.12605207 -0.033769134 0.12872379 0.007877382 0.03605439 0.058752168 0.022277003 0.18943144
0.12232405 0.124344476 0.026100837 0.1765746 0.053552125 0.015604474 0.16323914 0.10064487
0.15028718 0.054846473 0.028097766 0.058610626 0.12618792 0.10928309 0.09156867 0.04619873
0.122505255 0.18028076 0.13253294 0.14832123 0.14766648 0.19724701 0.043711346 0.047351986
0.10229346 0.096371934 0.1113891 0.080140986 0.13750173 0.0374388 0.18967691 0.060557075
-0.017701024 0.031309668 -0.024869928 0.13707197 0.05065587 0.095733464 0.09758979 0.08638731
0.083871864 0.04767448 0.045274574 0.019509666 0.03794877 0.072225064 0.08356587 0.14294884

tcn.network.0.conv.bias f4 [32]
00000000: 6615 8b3e 2200 993e 4f81 983e 236c 9b3e
00000010: 7a62 dc3e c01a a83e a4d3 573e 528c 5a3e
00000020: dfb9 be3e 5331 983e c881 44bb 3894 913e
00000030: 7718 b33e 7a5f 773e c494 aa3e c8c7 853e
00000040: bc28 833e a98a 973e 1381 b23e fd51 b23e
00000050: 1d3a 8e3e e18e b03e 03c4 c73e 6c84 ca3e
00000060: 00fa 9e3e 288c 7c3e 5e3d ad3e 9acc a73e
00000070: e601 6e3e 8e16 7d3e 2fe1 a13e 0bfa c33e
0.27164763 0.29882914 0.29786155 0.3035594 0.43043882 0.3283291 0.21076828 0.2134259
0.37251183 0.2972513 -0.0029984582 0.28433394 0.34979603 0.24157515 0.33316624 0.26128983
0.25617015 0.29597977 0.348641 0.34828177 0.27778712 0.34484008 0.39016733 0.39554155
0.3105011 0.2466284 0.33835882 0.32773286 0.23242912 0.24715635 0.31617114 0.38276705

tcn.network.1.conv.weight f4 [32, 32, 3]
00000000: 7883 633d a8e6 b73d add5 423d 66e8 1b38
00000010: af43 1c3d bf7a 483e 7131 4f3e 29a6 cd3c
00000020: b648 de3d 9a5f de3c 9f60 123e bbeb be3d
00000030: 01cc d53d 68d1 c83d b802 1b3e dc73 263e
00000040: d175 3e3d c7d4 b73d b33d f63d 435d 8d3d
00000050: 531f cb3d e01d c43d df84 d93d 0f3e 3a3e
00000060: a606 193e 73e3 3d3d d1ae 6a3e 9741 213e
00000070: 3e0b a43d 730d 603e 7884 eaa4 4e15 56ab
00000080: e44f d4ab 3951 303e 7495 543e 53de 873d
00000090: 2203 0a3d 09ff 993d 9bf7 123d d7d8 c73d
000000a0: 4ed2 fa3d 5f11 bc3d 4e4f 373e 0ce0 003e
000000b0: b5b6 e23d d2d3 ae3c a8c1 ee3d d5ad b73b
000000c0: f7bd de3d 1394 013e b4e2 733d 14c7 f53d
000000d0: 8b80 d53d 7e9c 243e 0e13 3b3e ae28 4f3d
000000e0: 10a0 2e3d f1d5 953d 751c 053d a9e3 073e
000000f0: 5366 f73c 4023 f8bb 2d8e 153e d0e1 493e
00000100: 5c33 c03d c486 993c 2c91 ef3d 6bf8 073e
00000110: 0260 753e 7c64 2b3e 8326 683e d347 043d
00000120: 092e 483e c07b 543d 5823 8d3d 97e5 0a3e
00000130: f8c0 aa3d c597 253e 432c 243d db3c 123e
00000140: 45a9 413e f4f1 073e 6960 2b3e 0570 393d
00000150: 9826 8c3d 8742 033e 538c 273e b511 713d
00000160: 5b1a 2a3e 4273 773d 244d ba3c 0518 ed3d
00000170: e4ba b33c ef7a 0a3d c5bb 033e 01e0 eb3d
00000180: e647 4f3d 778b df3d 4ac2 cb3d c6b9 193d
00000190: 0cf4 443e 8ef9 3e3d 1d24 fe3d b346 353e
000001a0: 7137 363e 5de7 1b3d 8bd8 183d 2dce 573d
000001b0: f2bd 283e a91c 7a3d 0fca bd3c 3776 0b3d
000001c0: 1bd4 1e3e 4989 163e 94a1 e03d 99e7 163e
000001d0: 61e7 853d c84e 833d 7cf7 f23c e304 193e
000001e0: a618 163e 13a9 183e c815 243d 5c84 fc3d
000001f0: 6153 483d f216 ef3d 7cc1 719d 7f8a 1625
00000200: e431 7fa6 00f7 373e b5e8 273d fd69 0b3e
00000210: abdb 1b3e 1993 023e c1be 423e 2434 cf3d
00000220: 9fef 253e 9cf1 f33d 2d73 183e f6e3 873d
00000230: c1bc c83d 2c36 1f3e 9636 d93d c19f c53d
00000240: 4bb7 1a3d 7253 203e f4c2 133e 4338 a33d
00000250: e5d6 fc3d edf8 013e fbc6 b43c 801c a63d
00000260: db52 973d e98e 273d 0547 043e cc33 583e
00000270: ea8a d73d 2f33 f03d b56a 0d3d 2eaf 093e
00000280: 2aa9 d83d d62a 883d 7943 d23d 673b db3d
00000290: 89cc 0a3e 6eac 183e a80e 103e 9650 363e
000002a0: 1204 c63d b013 0a3e bc93 123e 3f52 003e
000002b0: 2514 f53c 78d6 a43d a134 f23c 0ce1 133d
000002c0: 0f3e ae3c 8eb1 1a3e 9d05 6d3d 2596 0d3e
000002d0: 2efd d13d 7840 413e 3c24 213e e69f 763d
000002e0: 72a4 633e d08b bd3c 5d43 093e dc63 353e
000002f0: 775a 483e 939b d63d af1d 453c 8ec9 183e
00000300: af39 a63d 1224 9c3d 39c7 ef3d da2d 723d
00000310: 41f4 173e d83a 383e 331b 2b3e 80d4 d13d
00000320: 44a1 3d3d 0eee 9d3d 110e f63c 0df6 fc3d
00000330: c605 203e 113d 7e3d 3273 f93d 416d beba
00000340: b36e 063d d2fe 543d 44a8 d53b 615e 303d
00000350: 63b3 0b3e 5adb 2a3e 7add 113e 1ffa 293e
00000360: 44fd 8e3d a2ab ef3d e9f1 6e3e c920 573d
00000370: b741 273e 6102 893c 34d9 1922 1aaf 67a8
00000380: b2bc aea8 86fd 063e 297c 4a3e 774a 333e
00000390: cd43 523e 668f a13d c297 a83d 4321 a73d
000003a0: 8e3c a13d 7f8e a13d a525 933d cb17 5d3e
000003b0: 3cf7 bc3d 0d76 323e 2506 fe3d 8ea8 413e
000003c0: 9bf2 233e 323b d73d 6d90 0d3e 641e a83d
000003d0: a066 273d 8557 6c3e 5765 573e b1b3 293d
000003e0: 0b38 673e e20a fa3d a2ee f53d aaf1 703e
000003f0: e088 f13d fdd3 363d 7b6b 393e 3827 d63d
0.0555453 0.08979541 0.04756706 3.7171318e-05 0.038150486 0.19578074 0.20233704 0.025103645
0.10853712 0.027145196 0.1429467 0.09322306 0.10439301 0.09805566 0.15137756 0.16255134
0.046499077 0.08976131 0.12023487 0.06902554 0.09918084 0.09576011 0.10621046 0.18187736
0.14943942 0.04635949 0.2291825 0.15747677 0.08009957 0.2188013 -1.01705734e-16 -7.605764e-13
-1.508568e-12 0.17218484 0.20760137 0.06634202 0.033694394 0.07519347 0.035880666 0.09758156
0.12247144 0.09183001 0.17901346 0.12585467 0.11070005 0.021341238 0.11658031 0.005605439
0.10876077 0.12654142 0.059542373 0.12000862 0.10424908 0.16075322 0.18268988 0.050575905
0.042633116 0.07316197 0.032497842 0.13270439 0.03020016 -0.0075725615 0.14605017 0.19715047
0.09384796 0.01874102 0.11697611 0.13278358 0.23962405 0.1673755 0.22670941 0.03229506
0.19548811 0.05187583 0.06891507 0.13564144 0.08337587 0.16171177 0.040081274 0.14281027
0.18912227 0.13275892 0.16735996 0.045272846 0.06843299 0.12818347 0.16362123 0.058854777
0.16611616 0.060412653 0.022741862 0.11576847 0.021939702 0.033808645 0.12864597 0.11517335
0.050605677 0.10915273 0.09949167 0.037530683 0.19233721 0.046624713 0.12409232 0.17702751
0.17794587 0.038062442 0.037315886 0.05268686 0.16478708 0.06106249 0.023167638 0.034048285
0.155106 0.14700808 0.109683186 0.14736785 0.06538273 0.06411511 0.029659025 0.1494327
0.1465784 0.14908247 0.040059835 0.12329933 0.04890764 0.11674298 -3.1996113e-21 1.305735e-16
-8.853851e-16 0.17965317 0.04099341 0.1361465 0.15220515 0.12751426 0.1901808 0.10117367
0.1620469 0.11911318 0.14887686 0.06635277 0.09801627 0.15548009 0.106061146 0.09649611
0.037772458 0.15656832 0.14429837 0.079697154 0.123456754 0.12692614 0.022067538 0.08110905
0.0738885 0.040907774 0.12917717 0.21113509 0.10524543 0.117285125 0.034525592 0.13445732
0.105791405 0.06648795 0.10266776 0.107046895 0.13554586 0.14909527 0.14068091 0.17804179
0.09668745 0.13484073 0.14314169 0.12531374 0.029916832 0.08048719 0.029566111 0.036103293
0.021269826 0.15106794 0.05786668 0.13826807 0.10253368 0.18872249 0.15736479 0.060211085
0.222307 0.023137957 0.13404603 0.17713875 0.1956576 0.10478892 0.012031003 0.14920637
0.08116471 0.07624067 0.117079206 0.05912576 0.14839269 0.17991197 0.16709594 0.10245609
0.046296373 0.07711421 0.030036004 0.12351618 0.15627202 0.062069956 0.12180175 -0.001452841
0.032820415 0.052000828 0.006520303 0.043058757 0.1364265 0.16685238 0.14244643 0.1659932
0.069819 0.11702658 0.23334469 0.0525215 0.16333662 0.016724767 2.0850353e-18 -1.2861045e-14
-1.9399714e-14 0.13182649 0.19773926 0.17508875 0.20533676 0.07888679 0.082320705 0.08160641
0.07872878 0.07888507 0.071849145 0.21591108 0.09226844 0.17427845 0.12403516 0.18911955
0.16010515 0.105093375 0.13824625 0.082089216 0.040869355 0.23080261 0.21034752 0.041431133
0.22579972 0.12209107 0.12008406 0.23529688 0.11793685 0.04463576 0.18107407 0.10456699

tcn.network.1.conv.bias f4 [32]
00000000: 1ceb 9c3e 52b4 ce3e c6e7 9f3e b2d2 cb3e
00000010: 1252 f13e 5505 3e3e ec9e d23e 3340 0d38
00000020: 1b08 703d 6bb0 dd3e d472 c93e 747a 693b
00000030: cfd5 c83e 66cb 133d 858a 1e3d fd7f c33e
00000040: 8295 5f3e 9f35 a93e 8aac c13e bf9d 8d3e
00000050: eaaa a63e f343 c43e d69b a13e a6ee 943b
00000060: a0b1 d73e a218 3dbd 265a f5bb 6705 c63e
00000070: f3c1 ae3e 50d6 643e 6593 853e ee2b b53e
0.30648124 0.40371948 0.31231517 0.39809185 0.47132927 0.18556722 0.41136873 3.367681e-05
0.05860148 0.4329866 0.3934542 0.0035625966 0.39225623 0.036082648 0.03870632 0.38183585
0.21834376 0.33048722 0.3782695 0.27659413 0.32552272 0.3833309 0.31564206 0.0045450507
0.42127705 -0.04616607 -0.007487553 0.38675997 0.34132347 0.22347379 0.26089016 0.35385078

fusion.0.weight f4 [32, 32]
00000000: 4171 e33b 9ff2 3c3e fa25 173d b91e 2d3e
00000010: 4a9d 5c3e 95f0 933c e753 283e 5f52 a6bc
00000020: e6dc d739 8323 5bbc 9382 f03d 0329 da3c
00000030: 3488 3b3e 8d5d 16bc 571e e2bb e8bc 5a39
00000040: e970 743e 53d7 1f3d 426a a83d 7910 6e3e
00000050: ac9d ab3d 8d03 c33d 6efa 223d a785 14bc
00000060: ce25 103e f9e8 88bb 0f25 4339 0e8e cc3d
00000070: 4411 1c3e d627 923e 0072 813e 7c7a e23d
00000080: ed2b 293c 2831 ce3d b5a2 fc3d 9d8f 8d3e
00000090: d8e8 cf3d b740 063c 3436 503e c82f b53b
000000a0: b3f5 dc35 af80 403e dc2e 5c3e c6ff 3d3d
000000b0: 149d 153d 8863 1cbd 3834 e33b 0be6 983e
000000c0: f887 663d 430d 9d3e e759 3d3e 84b2 993d
000000d0: 6761 d23c 20f9 603d 497e 853e 00f8 be3b
000000e0: d7a9 e23d 645e cdba 5278 9636 42a7 a13e
000000f0: f330 433e 06d2 623e 4046 313e b760 0a3e
00000100: 2741 393e 0cc6 2f3e f671 5b3d 27a0 063d
00000110: e848 eb3c 8f82 1e3e 3e30 4f3e f398 743c
00000120: 7c44 2f39 6bcc 843e 779b 843e ac39 a8bc
00000130: a0b7 453e c13a 80bd ad9a 0c3d e9aa e63c
00000140: ff76 0b3e cfda 7b3d 6ce9 08bc 1122 003c
00000150: 0e99 6b3d 214a 343d 0188 673e e221 dc39
00000160: e0a5 2a3e 0456 9abb 0e13 6238 b9e1 1a3e
00000170: af38 883e 7f81 f83b 3ed3 84bc e923 173e
00000180: 38ca 523e 16ad 6abc f20a 213e d2aa 9c3e
00000190: 9d9e bd3d e14b c63c 7992 5d3e 5b34 b13b
000001a0: af93 2635 cd7d 403b 7e81 233e a095 30bd
000001b0: a0a6 ef38 c389 003d 2efd b23b 67b7 403e
000001c0: 784f 33bd d3f1 893e 8ac2 7f3e 9323 863e
000001d0: 9008 d53d 2f32 a73d fc83 45bc 6e02 7bba
000001e0: 5a41 083e 0102 34bb 4a7e 5537 d194 d93d
000001f0: f577 593e f973 bc3d 785a 843d a9e5 873e
00000200: f2bc 6a3e 9b97 983c baeb ad3d 4f91 773e
00000210: 3ad6 283e 3d12 ab3d b71d 6d3e b548 d03b
00000220: cb68 4537 d506 763e 4701 e33d f8c6 5ebb
00000230: 6271 663e a816 01bc 3226 0a39 fcc1 253e
00000240: d24f e3bb d9e0 473e df03 34bd c407 8bbc
00000250: 4a95 c03d a113 a03d a96a cc3d 4d44 60bb
00000260: 1694 613e ea91 6fbb f542 403b a824 103e
00000270: acca 8dbd 17cc bf3c 6c48 783e 45b0 193e
00000280: 63b3 e73c add0 fe3d e2b7 bf3d b9cc f33d
00000290: 7dc4 4c3e d594 b23d f5ab 4a3e 08ee aebc
000002a0: 7c0d 0a26 85d7 e23d 26f2 383e 4f9e 223c
000002b0: fdc0 3d3e 227d 143c fa6f b3aa 23c4 583e
000002c0: ea5d 4dbc 22ea 0e3c 9c2a 013e 0cd2 18bd
000002d0: 72cb 0e3e 71ca d73d 8a5a 553d e255 94bb
000002e0: fbc9 ef3d bd2c 03ba a9a9 d83a 415b 4a3e
000002f0: 530b e03d 5048 643e 632a 9fbc 0317 f43d
00000300: 281a 673e c991 603e 443c 413e 85f6 983e
00000310: 7bc4 ec3d 76e8 8f3c 9ae2 463e e742 793b
00000320: c8a3 c8a4 49a5 e53d 236c 153e 121c c2bc
00000330: eea1 583d fbd9 b33a 5050 0928 4d40 073e
00000340: 68d5 2f3e 0761 773e 9c5e b73d e944 c13d
00000350: 00aa 603d 5008 063e fa65 43bc d526 03bc
00000360: 85a4 273e 63fb baba 115a 3a3a 7cf0 543e
00000370: 58b6 5a3e ee19 913e d123 243c e0c9 e33d
00000380: 2b18 493e b525 0c3e da0d 903d bd83 193e
00000390: 89c6 b13d 1107 a83d e8e0 053d 0f2d f53a
000003a0: fcd5 9138 c0d1 bc3d 36db 883e 206f 3abd
000003b0: 3b96 853d 0408 043c 4371 f33c f837 63bc
000003c0: 0789 783e f3a9 3d3e 0f45 933d c285 de3c
000003d0: 3663 703e 7b73 b13d f1a9 873e 9dcc 17bc
000003e0: dbb7 473e 6466 8839 bce7 c13a 3279 653e
000003f0: 633e d03a f272 843d b574 cb3d 38f8 433e
0.006940991 0.18451928 0.03690145 0.16906251 0.21544376 0.018059054 0.16438256 -0.02030295
0.00041172578 -0.013375166 0.11743655 0.026630884 0.18313676 -0.009177578 -0.0069005894 0.00020860473
0.23871197 0.03902371 0.08223392 0.23248471 0.08379683 0.09522162 0.03978961 -0.009065068
0.14076921 -0.004178163 0.00018610455 0.09988032 0.15240961 0.28546017 0.25282288 0.11058518
0.010325414 0.100679696 0.123357214 0.2764863 0.10151833 0.00819414 0.20333177 0.0055293776
1.6462785e-06 0.18799089 0.2150225 0.046386503 0.036526754 -0.038180858 0.006933715 0.2986301
0.056282014 0.3067418 0.18491326 0.07504752 0.02568121 0.054925084 0.2607291 0.0058279037
0.11067551 -0.0015668389 4.4843555e-06 0.3157292 0.19061641 0.2215043 0.17311954 0.13513456
0.1809126 0.17165393 0.05357548 0.032867577 0.028721288 0.15479492 0.20233247 0.014929044
0.00016714813 0.2593721 0.2589986 -0.020535313 0.19308329 -0.062612064 0.034327198 0.028157668
0.13619612 0.06148797 -0.008356433 0.007820622 0.05751901 0.044016007 0.22610475 0.00041986915
0.16664839 -0.004709961 5.3900345e-05 0.15125169 0.26605746 0.0075837965 -0.01621401 0.14759792
0.20584953 -0.0143234935 0.15726832 0.30599076 0.09258769 0.024206104 0.21637906 0.0054078526
6.2054727e-07 0.0029371858 0.15967366 -0.043111444 0.000114274444 0.03138138 0.0054623103 0.18819962
-0.04377696 0.2694231 0.24976555 0.26199016 0.10402024 0.08163869 -0.012055393 -0.0009575252
0.1330618 -0.0027467015 1.2725193e-05 0.106240876 0.21237166 0.092018075 0.06462568 0.26542404
0.2292364 0.018626979 0.08492227 0.24176525 0.16487971 0.08353088 0.23155867 0.0063563236
1.1766514e-05 0.24026044 0.11084228 -0.0033993106 0.2250419 -0.007878937 0.00013174934 0.1618728
-0.0069370056 0.19519366 -0.043949004 -0.016971476 0.09403475 0.07816244 0.09981281 -0.0034220398
0.22029147 -0.0036555477 0.0029336785 0.14076483 -0.06923422 0.023412747 0.24246377 0.15008648
0.02828378 0.124421455 0.09361245 0.11904282 0.1999683 0.08719794 0.19792159 -0.021353737
4.7896643e-16 0.11076263 0.18061122 0.009925439 0.1853065 0.009063037 -3.1874487e-13 0.2116857
-0.012534598 0.008722814 0.1261391 -0.03730969 0.13944796 0.105366595 0.052088298 -0.0045268396
0.117084466 -0.000500392 0.0016530055 0.19761373 0.1093966 0.2229321 -0.019429391 0.11918452
0.22568572 0.21930613 0.18870646 0.2987558 0.11560913 0.0175669 0.19422379 0.0038034262
-8.701363e-17 0.11213166 0.14592032 -0.023695026 0.052888803 0.001372158 7.622443e-15 0.13208123
0.17171252 0.24158107 0.08953592 0.09436972 0.054849625 0.13089108 -0.011926169 -0.008004864
0.16371353 -0.0014265593 0.0007108758 0.20794863 0.21358621 0.28340095 0.010018305 0.11122489
0.19638126 0.13686259 0.07033892 0.1499166 0.08680446 0.08204473 0.03268519 0.0018705445
6.9539965e-05 0.09219694 0.26729745 -0.045516133 0.06522795 0.008058552 0.029717093 -0.013868324
0.24271022 0.18521862 0.07190906 0.02716339 0.23475346 0.08664604 0.26496843 -0.009265092
0.19503729 0.00026016228 0.0014793794 0.22409514 0.0015887733 0.064672366 0.099343695 0.19137657

fusion.0.bias f4 [32]
00000000: 3e80 893e 3c44 433f 8419 b13e fb3c 823e
00000010: 3e65 223f eb52 253f 46f1 3c3f 5535 e43e
00000020: 8b30 233e ca6d 103f 0428 323f 0726 153f
00000030: 96ae a03d b5e8 493f d290 1d3f dab0 973e
00000040: e9b2 953f 6024 b33e 94a2 6f3f be4b 803e
00000050: 9a93 df3e db76 663e 2373 573f 7753 413f
00000060: d330 023f e5ac cd3e f8f2 823e 675c 8d3e
00000070: 2d3e 553f 713c f13d af8c ac3d a474 653f
0.26855654 0.7627599 0.3458978 0.2543715 0.63435733 0.6457965 0.73805654 0.4457194
0.15936486 0.56417525 0.6959231 0.5826115 0.078457996 0.7887071 0.61549103 0.29627115
1.1695224 0.3498869 0.9360745 0.25057787 0.436673 0.22506277 0.8416006 0.7551798
0.5085575 0.4017097 0.25575995 0.2760956 0.83298 0.117791064 0.08425271 0.89631104

predictor.0.weight f4 [16, 32]
00000000: 69e8 7c3c 89c9 a03d 03e1 383e 4dd9 553e
00000010: 3c98 663d aa56 083e 86e6 cc3d 5c1e 603e
00000020: de72 b13d d396 ea3a 770d 993c bccb d83d
00000030: 5872 4280 3a60 8f3d e742 613e 198b e93d
00000040: 89b9 423e ae41 063e 82c5 d5bb a971 8d3d
00000050: 6368 333e 3392 083e e064 083d f394 553d
00000060: d611 653e 767c 4b3d 5c30 153e 4311 e23d
00000070: fcf3 103e cff4 ca3c d245 3435 e2b1 563d
00000080: 7acc 433e 2961 693d 3f78 e63d 6b2c d23d
00000090: b78d c03d c51a 8c3e 9f9b c73d 7f59 983e
000000a0: ffda 513e 2015 623e 1098 8a3e 1a7f 913d
000000b0: 9e4a 0ebd 90ec 013e 83d7 463e 1a84 5c3e
000000c0: 8848 f23d df2e 9d3e ad38 4b3e cc20 4e3e
000000d0: 6ce0 d63d 8cf3 283e 4bd7 043e 33b5 803d
000000e0: bcf9 b53d 3da3 c33d 8535 cd3d 1ad0 f83d
000000f0: 4f35 8f3e e7de 2b3d 77a7 6dbd 5cee 043e
00000100: 67ac 613e a812 123e 5d2b 303e 99f2 3b3e
00000110: 84d8 833d a13c 143d 50c7 bd3d 3084 9e3d
00000120: 212d 5a3e 29f8 66bd e30b 173e cb01 cc3d
00000130: 6854 5a38 9830 023e ba69 713c a7ed e23d
00000140: 1725 073e ed7b 183c 163a 423e b0be 733e
00000150: 2d6e ef3c 554c 0f3e 03f0 583d 3908 7c3e
00000160: b298 ed3d 0c6a 2bbc 419a 183e 5c68 6e3e
00000170: 1b81 de3d d3ea 9cbc 8bf7 8d3c 2a8b 053e
00000180: bf9c 7e3e b7e8 223e e6a1 4f3e c0aa 523e
00000190: 11c8 673e 7363 4d3e 61fc 853d 0349 9b3d
000001a0: a0d8 383d ec3e 743e 5f5b bf3d 6ac5 623e
000001b0: 6b51 8a01 fe62 2e3e 3541 583e 61b5 0f3e
000001c0: be41 f73d 3e28 d83d 4162 9a3d 6670 203d
000001d0: 585d 1d3e 621a 243e 950a 133e dfd7 923e
000001e0: d6c9 1e3e 5c58 283e ad49 5a3e f7b8 303e
000001f0: 89e9 0a3e 1929 b73c 3f66 b300 9c51 833e
00000200: d48f 4d3e a48c 923e 5b4e e13d 992d a63e
00000210: 0d3e fe3d 49dc 013e fd8a 063e 7993 463e
00000220: 1358 553e 7d2d b63d 587e 6f3d f0df 863e
00000230: 0993 7939 44f7 2f3e fc0f 0b3e 81b7 d53d
00000240: 54f6 2d3e 06d3 1b3e d0eb ec3d 3234 8b3e
00000250: c6aa 8a3e cbe7 843d e767 363e 1127 dd3d
00000260: e0d8 dc3d 9ef0 b93e 213d 553e 6ad3 903e
00000270: 7f0d 103e 3e20 273c ec42 413b 0cbf bb3d
00000280: 82dc 6abc 260b 8d3e ec02 063e e7a4 6d3e
00000290: bbb1 7a3e ab6e 263e e555 ef3d 84d3 093e
000002a0: bc6d e93d 06b7 f63d b0b5 123e 82ea 313d
000002b0: 348c 5ebd 56ec 4d3e 5bfd 203e fb4f 863d
000002c0: af7a 673e 9c22 e53d 0602 433d 056b 2b3e
000002d0: 64d7 293d 0cb8 123d 0a6b 803e 20cf f03d
000002e0: 0f37 893d 5352 853e 28ad 033e d20f a73c
000002f0: 6c14 ca3c eb12 78bc 6020 4f3c 3b1b 2c3c
00000300: 3740 f83d f690 463e 50b7 3f3d 2b21 5b3d
00000310: 2e03 1a3e 5d56 0d3e af4c 843d 806c b53d
00000320: 617f 523e 7eb0 a63e ce15 f53d 241c 893e
00000330: b402 1d00 4b21 7c3e 6d03 ae3d 4f9c 0b3e
00000340: 039e 493e c6c4 303e 14a4 ab3d f2e1 4a3e
00000350: 7668 803e ef49 913d c78f 9f3d 643e 453d
00000360: d91f e73d e0f5 0f3e 96c5 813d caf1 8a3d
00000370: 5be0 503e c61e bf3c c731 dd32 c3a1 383e
00000380: f878 823e 1891 f13d b526 bc3d e63e 063e
00000390: cbde 9b3e ce3d 253e caff 553e 44e3 e43d
000003a0: 4673 c43d 3a2f e53d 2c3c 3d3e 6158 063e
000003b0: 10a7 d088 b40f 453e 7b88 433e ef05 8b3d
000003c0: 6d18 893e 39f5 1e3c 9a93 5f3e fbba 053d
000003d0: fe83 b03d 9c36 9d3e 80ea 723e 4a88 4d3e
000003e0: 501b 973e 0ad2 153d 30e7 113e 87cd 683e
000003f0: c5ee 113e 74e3 b13c 1354 5432 466d 1c3e
0.01543627 0.0785094 0.18054585 0.20883675 0.056297526 0.1331431 0.10004906 0.21886581
0.08664487 0.0017897732 0.018683178 0.10585734 -6.102162e-39 0.07000776 0.21998177 0.11403484
0.19016089 0.13110992 -0.006523789 0.069064446 0.17520289 0.1333702 0.033299327 0.052144002
0.22370085 0.049679242 0.14569229 0.11038449 0.14155573 0.024774937 6.715683e-07 0.052415736
0.1912097 0.056977425 0.11253404 0.10262378 0.0940203 0.27364174 0.09746479 0.2975578
0.20493697 0.22078371 0.2706914 0.07104321 -0.03473913 0.12687898 0.19418149 0.21534768
0.118302405 0.30699822 0.19845839 0.20129699 0.10492024 0.16499156 0.12972753 0.06284561
0.08885524 0.095526196 0.10019974 0.12149067 0.2797036 0.041960623 -0.058021035 0.12981552
0.22038423 0.1426493 0.17204042 0.18354262 0.064377815 0.036190633 0.092665315 0.077400565
0.21306278 -0.056389008 0.14750628 0.099612795 5.205386e-05 0.1271385 0.01473468 0.11080485
0.13197742 0.00930689 0.1896747 0.2380321 0.02922734 0.13993962 0.052963268 0.24612512
0.1160139 -0.010462295 0.14902593 0.23281997 0.10864469 -0.019154942 0.017329952 0.13041368
0.24864481 0.15909086 0.20276603 0.20572948 0.22634913 0.20057468 0.06542278 0.07582285
0.045128465 0.23852128 0.093435995 0.2214562 5.0810023e-38 0.1702995 0.21118625 0.14034034
0.12073086 0.105545506 0.07538272 0.03916969 0.15367639 0.16025689 0.14359505 0.28680322
0.15506682 0.16439956 0.21317168 0.17258058 0.13565649 0.022358464 1.6475233e-38 0.256482
0.20074397 0.28622925 0.11001273 0.32456663 0.12414179 0.12681688 0.13138957 0.19392194
0.20834379 0.08895395 0.0584701 0.26342726 0.00023801265 0.17184168 0.13580316 0.10435391
0.16988498 0.15217218 0.11568415 0.2718826 0.27083415 0.064895235 0.17813073 0.10798467
0.10783553 0.3631639 0.208241 0.28286296 0.14067648 0.010200558 0.0029489351 0.09167299
-0.0143348 0.27547568 0.13087052 0.23207437 0.24481861 0.16253154 0.11686305 0.13459593
0.11397883 0.12046628 0.14327121 0.043436535 -0.054332927 0.20109686 0.15721647 0.06558224
0.22605394 0.11188242 0.04760935 0.16740043 0.041465178 0.035820052 0.25081664 0.11758256
0.06699955 0.2603937 0.12859023 0.020393286 0.024667941 -0.015141229 0.012641996 0.010504539
0.12121623 0.19391236 0.04680568 0.05349843 0.15040275 0.13802476 0.06459939 0.08858585
0.20556404 0.32556528 0.119670495 0.26779282 2.664199e-39 0.24622075 0.08496747 0.13633846
0.19689183 0.17262563 0.08380905 0.19812754 0.25079697 0.0709418 0.07791095 0.048155203
0.11285371 0.14058638 0.06336515 0.06784399 0.20398085 0.023330104 2.5750422e-08 0.18030457
0.25482917 0.117952526 0.0918707 0.13109931 0.30443415 0.16136858 0.20898357 0.1117616
0.09592299 0.111906484 0.18479985 0.13119651 -1.2557821e-33 0.19244272 0.19095032 0.06788241
0.26776448 0.00970202 0.2183365 0.03264902 0.086189255 0.30705726 0.23722267 0.20071521
0.29513025 0.036577262 0.14248347 0.22734652 0.1425124 0.021714903 1.235914e-08 0.1527606

predictor.0.bias f4 [16]
00000000: a9fd da3d a9a3 c03d f02d 663e b1be 2b3f
00000010: f940 de3e e82f 243e 09e2 a13f da04 ce3f
00000020: 020c 263e f9da 3b3f 2f5e dc3f 919c 353e
00000030: 08ef 8d3e d209 553e c85b b93d 301b 733e
0.10692913 0.09406216 0.22478461 0.67087847 0.43408945 0.160339 1.2647105 1.609523
0.16215518 0.73381 1.7216243 0.17735507 0.2772143 0.20804527 0.09050709 0.2374084

predictor.3.weight f4 [1, 16]
00000000: 7d85 973e aa87 5f3e 266e 943e 6edf 623e
00000010: b2b9 393e 923f 813e 46ce 853e 5245 4d3e
00000020: d0ac 3a3e 7792 3e3e 3af1 8d3e 8b3a 5b3e
00000030: 4c93 303e 3070 993e 4e23 9c3e c6b7 923e
0.2959403 0.21829095 0.28990287 0.22155544 0.18137243 0.25243813 0.26133937 0.20045975
0.18229985 0.1861056 0.27723104 0.21409051 0.1724369 0.29968405 0.30495685 0.28655833
