backend/ml_pipeline/models/stgnn_best.pth (torch, 39202 bytes, 13 tensors)

gcn_layers.0.weight f4 [5, 16]
000000 dd 8b 44 3e ae 6a 40 3d dc 96 e3 bd 6b c3 e7 3e
       0.19193979 0.046976738 -0.111127585 0.4526628
000010 69 42 20 3d 91 66 9d bd 54 df db bd 7e 01 b6 3e
       0.039125834 -0.076855786 -0.10735956 0.35548013
000020 c2 52 02 3e c3 45 b1 be 6c 32 ee 3e 8b f9 f7 3d
       0.12726882 -0.34623536 0.46522844 0.121081434
000030 df db d1 3e 0f 4e 99 bc 17 ce 85 3e 2e f7 6d bd
       0.4098806 -0.018713979 0.26133797 -0.058097057
000040 80 34 b8 3e 9b cd f3 3d bc 1e dd bd 42 4c e7 bd
       0.35977554 0.119044505 -0.10796878 -0.11293842
000050 0b d8 dd be 8d 5e 41 be 2a 36 90 be 92 0c 51 3e
       -0.4332889 -0.18883725 -0.28166324 0.20414951
000060 d0 20 81 be 8d 16 bc be 52 f1 b3 be 26 d5 11 bf
       -0.25220346 -0.36735955 -0.3514505 -0.56965864
000070 b4 6d 28 be bb 50 f9 be 58 db 76 3e db dc b0 be
       -0.16448098 -0.48694405 0.2410711 -0.345435
000080 0b fa 2a 3f ed 5e 18 3f 1e 59 2c be 82 f0 91 3d
       0.66787785 0.59519845 -0.1683087 0.07125951
000090 e9 57 28 3d 56 d1 28 3f 3d f7 97 3d 10 d3 91 3d
       0.041099463 0.6594442 0.07420204 0.07120335
0000a0 ea 2e c4 3d f5 c4 e8 be d5 e1 f7 3d 58 64 35 3e
       0.09579261 -0.45462766 0.12103621 0.1771406
0000b0 8b ad dc 3d 71 12 48 3d a7 a6 9b 3d 51 9a b4 3d
       0.10775288 0.048845712 0.07600146 0.08818496
0000c0 b6 67 91 bc 5c 1f cc bc 21 b3 db bd c1 cd d2 3c
       -0.017749649 -0.024917297 -0.107275255 0.025732877
0000d0 b5 3d e8 3b 8b e1 bf 3d 7e f7 3b 3d 17 7b ea 3b
       0.007087434 0.09369191 0.045890324 0.0071557867
0000e0 11 3f a5 3d 0f 6b 02 3d e8 0e 39 3d 70 c3 92 bd
       0.080686696 0.03184038 0.04518023 -0.07166183
0000f0 9c 05 1b ba 89 36 18 3c 5b ef 97 3c 3e a9 7e bb
       -0.00059136166 0.009290346 0.01854675 -0.00388582
000100 57 f7 9a 3e 2d 0c 49 bd db 0e 8e 3e 58 cd 9c be
       0.3026683 -0.049083877 0.2774571 -0.30625415
000110 e2 96 88 be 92 85 4c be 0f c7 9d 3e 14 fe 11 3e
       -0.26677614 -0.19972828 0.30815932 0.1425708
000120 64 b6 8c 3d 34 e8 c2 be 99 27 15 bf 7c df c0 be
       0.06870726 -0.38067782 -0.58263546 -0.37670505
000130 8c 34 bb be 1f 4e 4e bd 18 04 5c 3e 33 f1 f2 3d
       -0.36563528 -0.05036747 0.21485937 0.11862411

gcn_layers.0.bias f4 [16]
000000 bd d9 2d be 3d c3 0d be 54 47 68 be 41 f8 0a 3e
       -0.16977592 -0.13844009 -0.2268346 0.13571264
000010 18 d9 65 bc 6b a9 4d bd b2 c2 56 3d d7 79 f5 3d
       -0.01402881 -0.050210398 0.05243177 0.1198613
000020 bd 9d e7 3d 2a a6 43 be 62 c7 0b 3e e4 be 9b bc
       0.11309383 -0.19106355 0.13650277 -0.019011922
000030 aa ee 02 3e 48 fb fb 3c d7 1b 90 3d 1e f5 a0 3d
       0.12786356 0.030759469 0.0703656 0.078592524

gcn_layers.1.weight f4 [16, 32]
000000 90 b9 63 be 81 90 25 be 15 d0 21 3e 9d a9 22 bf
       -0.22238755 -0.16168405 0.15802033 -0.6354006
000010 ad 9c 9d 3d 6a 0b 53 be 76 58 db 3d f3 a5 b3 be
       0.07695899 -0.20609823 0.10710232 -0.35087547
000020 54 28 0f bf e7 44 ee 3b 9a 49 28 3d 17 58 33 bf
       -0.5592091 0.0072713974 0.041085817 -0.7005629
000030 4a 7b f1 3d 61 d2 2d 3e d2 a5 d2 be 6d 29 ac be
       0.11791094 0.16974784 -0.41142136 -0.33625355
000040 88 3f c3 3d 5c 53 12 be 43 8f 83 be 36 b3 dc be
       0.09533602 -0.14289612 -0.25695238 -0.43105477
000050 b4 bc 8f be c0 be 28 bd 30 eb 0c be 10 dc 56 be
       -0.28073657 -0.04119754 -0.13761592 -0.20982385
000060 62 3e a2 bd f2 2e 6d be 61 c4 8a be d9 2b 89 be
       -0.07922055 -0.2316244 -0.2710295 -0.26791266
000070 6a f8 96 be 63 4c 44 bf 01 1a 02 3e 44 b9 b3 be
       -0.294864 -0.76679057 0.12705232 -0.35102284
000080 73 46 c5 3c bb 89 5e be 04 71 68 be a7 9d 1c bf
       0.024081444 -0.21732228 -0.22699362 -0.6117806
000090 f4 48 0f bd cf 5d 83 be 34 bd dc bd ee d9 85 be
       -0.034981683 -0.25657508 -0.10778275 -0.2614283
0000a0 79 ed d5 be a2 3f 58 be 5a 58 9c bd e4 bb 23 bf
       -0.4178274 -0.21118024 -0.07634039 -0.63958573
0000b0 2f eb 75 be 90 84 43 be c6 5b 95 be 62 6c d9 be
       -0.24015497 -0.19093537 -0.2917158 -0.42465502
0000c0 33 16 94 3d 5b 08 d4 bd a5 41 11 3e ad 66 9b bd
       0.07230797 -0.10353156 0.14185198 -0.07587943
0000d0 a3 21 9a be be 8d d0 3d 62 f8 2c be bd d6 0c be
       -0.30103788 0.10183285 -0.16891626 -0.13753791
0000e0 8d 8d 8f be 71 f8 9c be 58 4c 89 3d c9 07 32 be
       -0.28037682 -0.30658296 0.067040145 -0.17385782
0000f0 23 b3 95 3d cb 25 57 bf 89 51 4b 3d 46 3a ea be
       0.07309558 -0.8404204 0.049638305 -0.45747584
000100 05 60 1f be da 29 11 be d2 1a 62 3d a9 17 67 3e
       -0.15563972 -0.14176121 0.05520136 0.2256762
000110 bb ac 80 3e 11 ee 66 be f8 d5 6c 38 bb d5 54 be
       0.25131783 -0.22551753 5.646606e-05 -0.20784657
000120 b2 af 8d bd c2 5c 9a be 39 31 1d 3e 1f 72 07 be
       -0.06918277 -0.30148894 0.15350808 -0.13227127
000130 6d 5a cd 3d da 09 d1 bc c3 7f d0 bc d5 8b 7e be
       0.10027013 -0.025517393 -0.025451547 -0.24858029
000140 f7 91 03 3e 10 11 32 bd 23 29 ba 3c 10 f2 76 be
       0.1284865 -0.043473303 0.022724694 -0.24115777
000150 bc 01 8f bb 66 dd a4 bc 30 64 62 be a3 b9 f2 3d
       -0.0043642204 -0.020125102 -0.22108531 0.11851814
000160 7f 64 ab bc 21 75 9e be 55 58 59 be 95 9f 1c be
       -0.020921944 -0.30948737 -0.21225102 -0.1529525
000170 a8 b5 8a 3d 66 d8 14 be 89 f2 8a be 31 93 69 be
       0.067729294 -0.14535674 -0.27138165 -0.22810055
000180 3f 65 43 be a0 97 c1 3d 1f d6 9f 3e 13 1b 0c be
       -0.19081591 0.09452748 0.3121805 -0.13682203
000190 51 01 0f 3e 41 5c ef 3d 55 7b a7 3d c1 b8 05 be
       0.13965346 0.11687518 0.081778206 -0.1305876
0001a0 7b 11 60 3e 10 b5 58 3e 67 67 39 3e 14 0d 3a bd
       0.21881668 0.2116282 0.18105851 -0.04542263
0001b0 63 a3 16 bd 05 35 c5 3d f5 01 d5 bc 64 46 c2 bd
       -0.03677691 0.09629253 -0.02600191 -0.09486082
0001c0 4b 88 70 3e b0 8c 93 3e 31 4c 75 3c 05 57 08 bd
       0.23489492 0.28818274 0.014971779 -0.033286113
0001d0 5d 1a b7 3d d5 42 d2 3d 60 2e 12 3e ed fb c4 3d
       0.08940575 0.102666534 0.14275503 0.096183635
0001e0 1a 12 50 be 34 40 ad bd 35 73 a0 3e 5a 40 3b 3e
       -0.20319405 -0.084595114 0.31337896 0.18286267
0001f0 e4 ce ab 3c 44 bc 46 bd a5 68 38 be 56 f6 2c be
       0.020972677 -0.048519388 -0.18008669 -0.16890845
000200 b7 0d 4d bc 3c 4c b3 3d 6f 03 99 3e 4e ff 82 3e
       -0.012515477 0.08754775 0.29885432 0.25585407
000210 48 bd 0a be 10 c8 cc bd ab fa b6 3d 7b ed ab 3e
       -0.13548768 -0.099990964 0.0893453 0.3357962
000220 cc 14 06 3e 58 6b d8 3c 6d da 22 3e 9d 5f 95 3b
       0.13093871 0.026418373 0.15903635 0.004558517
000230 16 e5 d8 bd c3 0b a0 3e 66 d7 2e bd 9a 01 2c bd
       -0.1059057 0.31258973 -0.04268589 -0.041993715
000240 08 4d 82 be c0 92 90 3e 85 89 a8 3e 2e a9 45 3e
       -0.25449395 0.2823696 0.3291742 0.19302818
000250 7d bc 03 be e4 20 fe bd b1 8f 2a be 6d 4f 97 3e
       -0.12864871 -0.12408617 -0.16656376 0.29552785
000260 8b 95 86 3e 50 d0 9c 3e 48 eb 7f 3e ad 43 23 3e
       0.26285967 0.3062768 0.24992096 0.15943785
000270 27 b9 df 3c e3 f3 90 bd a7 b2 1b be bb 28 1e be
       0.027309967 -0.07077768 -0.15204869 -0.15445225
000280 d7 81 8c 3c 5d fe 8a bd c6 dc b1 bd 70 77 31 bf
       0.017151756 -0.06786797 -0.08684687 -0.6932287
000290 95 39 4b be 5e 65 3d be 6e 1f 65 be aa 67 71 bd
       -0.19846185 -0.184957 -0.2237527 -0.058936752
0002a0 43 54 fb be 7d 24 6f 3d dd af 07 be 4d 5b 45 bf
       -0.49087724 0.058384407 -0.1325068 -0.7709244
0002b0 30 44 d2 bd 67 f6 42 be 30 7f 58 be fa 77 b8 be
       -0.10266912 -0.19039308 -0.21142268 -0.36029035
0002c0 0d e3 13 bd 13 03 2b be 1b d3 bd 3b 26 bb 88 bd
       -0.036105204 -0.16700391 0.005792988 -0.06676321
0002d0 a0 65 fd 3d dc 2b 93 be 85 cd 82 3d bd 95 ee bd
       0.12372899 -0.287444 0.06386856 -0.11649654
0002e0 45 2f d2 3c bd d3 4a 3e b4 93 98 bd 19 29 72 bd
       0.025657305 0.19807334 -0.07450047 -0.059121225
0002f0 2c 69 fb bd 19 5f 4a bf 1a 90 84 bd 7b 63 19 bf
       -0.12275919 -0.7905136 -0.06472798 -0.5991742
000300 da ae 5a 3e 42 c9 42 3e 0c 1f db 3e 9c 0a 0e 3d
       0.21355763 0.19022086 0.42797124 0.034678087
000310 fc 2e 90 bd 58 e6 2a 3e 11 d4 aa 3e d9 dd 1f be
       -0.070402116 0.16689432 0.3336492 -0.15611972
000320 59 81 9b 3d aa 6e 01 3d bb d1 55 3d b1 7a d7 bb
       0.075930305 0.031599678 0.052201968 -0.0065759053
000330 69 a4 4d 3d eb 78 3f bd 56 22 a9 be cc 44 a7 3e
       0.050205622 -0.046746176 -0.3303401 0.32669675
000340 af 53 a4 3e a1 c8 de bb f3 64 54 3e db 99 30 bc
       0.32095096 -0.006798819 0.20741634 -0.0107788695
000350 2a 02 82 be c9 94 1a 3d 34 3b 55 3e a6 4a 2c be
       -0.25392276 0.03773955 0.20823365 -0.16825351
000360 78 bb bc bd 6d 8b 18 3d 33 e7 06 3e 71 a3 5c bd
       -0.09215444 0.03724234 0.13174133 -0.053866807
000370 dc 56 36 3d f8 de e5 bb 8b 92 4a bd 1a a1 15 be
       0.04451643 -0.0070151053 -0.04945616 -0.14612237
000380 05 c4 41 be 1f 21 a1 3e d4 66 2c bd 5d 64 1d 3e
       -0.18922432 0.31470582 -0.042090252 0.15370317
000390 ce e7 94 bd 06 c5 3c 3c 0e 78 b0 3e e9 77 5c 3e
       -0.07270776 0.011521583 0.34466594 0.21530117
0003a0 82 39 64 be cb fb 25 3e aa 82 c3 3e c8 8a e2 3c
       -0.22287562 0.16209333 0.38185626 0.027654067
0003b0 6a 87 94 3e 1e ea c1 3e 1b 84 dc bc f1 d6 d0 3d
       0.29009563 0.3787393 -0.026918462 0.10197247
0003c0 ea 43 60 be 72 f2 90 bd 2d ba a8 3e 1f f9 45 3e
       -0.21900907 -0.07077493 0.3295454 0.19333313
0003d0 a0 3f 13 be bb d0 84 bd 57 8e 06 be 4d 20 a5 be
       -0.1437974 -0.06485125 -0.13140236 -0.32251206
0003e0 c1 0e 29 be 0a c0 9b bc 71 ea 86 3e 08 cc b6 3d
       -0.16509534 -0.01901247 0.2635074 0.089256346
0003f0 dc 52 3f be 88 42 60 be 2e ad 31 3e ea ce 45 be
       -0.18683952 -0.2190038 0.17351219 -0.19317213

gcn_layers.1.bias f4 [32]
000000 c4 2e 3b 3e b9 b9 2e 3e 05 c3 10 3e 70 a6 cc 3d
       0.18279558 0.17063035 0.14136894 0.09992683
000010 79 92 21 3e 95 c4 4d 3e 5a e2 47 3e 80 b9 4f 3e
       0.15778531 0.20094521 0.1951994 0.20285606
000020 79 b8 f2 3d b5 49 02 3e 82 55 ce 3d 34 31 31 3e
       0.118515916 0.1272343 0.10074903 0.17303926
000030 11 cc 23 3e 1d 41 38 3e 46 68 3f 3e e3 61 fd 3d
       0.15995814 0.17993589 0.18692121 0.12372186
000040 27 5b c4 3d b2 9e 1a 3e d5 66 31 3e 79 fd 2d 3e
       0.095876984 0.150996 0.17324384 0.16991223
000050 b1 ae 2b 3e b7 8f 47 3e 24 e9 29 3e 11 a9 3d 3e
       0.16765858 0.19488417 0.16592842 0.18521525
000060 15 6d 2e 3e a3 fe 20 3e 80 7d 06 3e 60 be 3b 3e
       0.17033799 0.15722136 0.13133812 0.18334341
000070 11 f4 37 3e b2 88 08 3e eb 12 c3 3d 09 00 29 3e
       0.17964198 0.13333395 0.09525093 0.1650392

tcn.network.0.conv.weight f4 [32, 32, 3]
000000 4a 6b 6d 3c 9d 01 2e 3c d6 c8 06 bc c0 d7 0a bd
       0.014490912 0.010620502 -0.008226594 -0.03389716
000010 b3 7a d1 3d a0 1b 07 3b 75 34 54 bc e7 a5 13 3d
       0.10228481 0.002061583 -0.01295196 0.03604689
000020 34 47 40 bb fa 70 c3 bb 40 03 a4 3d 2c e9 ab 3d
       -0.0029339315 -0.0059643956 0.080084324 0.083940834
000030 ab 31 82 3d 6f 13 c5 3d 7c 0e a8 3d f4 b7 d4 3c
       0.0635713 0.09622847 0.08205888 0.025966622
000040 2d 26 e2 3d ec a0 ac 3d 7c fb 24 3d 50 ea 51 3d
       0.11042438 0.08429131 0.040278897 0.05124885
000050 b7 c4 18 3e d0 f3 a6 3d 85 f0 04 3e cd 6e 2f 3d
       0.14918791 0.08151972 0.12982376 0.042830277
000060 14 87 a2 3d 2d 18 c9 3d 6f 4e 93 3d 2a 03 3b 3d
       0.0793592 0.09819064 0.071926944 0.045657314
000070 22 36 c1 3d 33 e7 d7 3d 91 65 d7 bd 4a a9 6c 3d
       0.09434153 0.105421446 -0.10517419 0.057778634
000080 5d 25 2e 3c cc 2d 22 3e 33 0b 41 3e 1f 24 2b 3e
       0.010629025 0.15837783 0.18851928 0.16712998
000090 19 0a 3d 3b 6c 3a 95 3d 0b a9 29 3d a2 c7 15 3c
       0.002884513 0.07286534 0.041420978 0.009141834
0000a0 85 ec ff 3d bd 3f f7 3d c2 21 cf bc 43 97 d0 3d
       0.124962844 0.12072704 -0.025284652 0.10185101
0000b0 3a 9d 1e 3d 7c c7 30 bd 0e bb 03 3d 95 d1 b4 3c
       0.03872416 -0.043158993 0.03216081 0.022072593
0000c0 51 0f 65 3c b9 d3 03 bd 73 05 8f 3d ec 35 86 bc
       0.0139807025 -0.032184336 0.06983461 -0.016383134
0000d0 21 80 5b 3d 2a 46 8d 3a 0f 0c 1c 3d 14 0c e4 3d
       0.05358899 0.0010778357 0.038097437 0.11135116
0000e0 14 ba 96 3c 70 68 bf 3c 0d 7a fe 3d 6c c9 0f bd
       0.018399276 0.02336523 0.12425623 -0.0351042
0000f0 0e ff 9a 3c 64 5e 30 3a 36 7c 59 3d 9b be d0 3c
       0.018920448 0.00067279325 0.053096972 0.025481513
000100 53 45 c2 3d fa a0 52 3c ef fc 1f 3d a7 b5 cb 3d
       0.09485879 0.012855763 0.039059576 0.09946757
000110 a8 c9 3a 3c d2 02 f2 3d 47 4e 9d 3d f5 fd c1 3d
       0.011400618 0.11816944 0.07680946 0.094722666
000120 e4 eb 1b 3d dd 21 4f 3d fd d9 8a 3d f6 11 a3 3c
       0.03806676 0.050569404 0.06779859 0.019906025
000130 7c 31 ec 3d c6 46 99 3d f4 a4 b5 3d 70 aa 0c 3e
       0.11532876 0.07484202 0.08869353 0.13736892
000140 70 22 e9 3d 77 ef 89 3d 9d f7 05 3d b0 e9 8a 3d
       0.113835216 0.067351274 0.032706846 0.067828536
000150 d1 25 48 3d 95 42 96 3d 33 19 35 3d 04 5f 42 bc
       0.04886419 0.07336918 0.044213485 -0.011863474
000160 2c fb 08 3e de d8 d5 3d a9 5c fe bc 7b 7a bb bc
       0.13377064 0.10441755 -0.031050043 -0.022885552
000170 2c f4 cb bc 94 a3 67 bc 84 a0 1a 3c 04 6a 79 3d
       -0.024896704 -0.014138121 0.009437684 0.06089212
000180 23 8f 08 bd f0 13 4e 3b e4 41 14 3d e7 9e f2 3d
       -0.03333963 0.003144499 0.03619565 0.118467145
000190 f9 e8 bc 3d 54 cc 24 3e 1a 38 ab 3c d5 9f 05 3e
       0.092241235 0.1609357 0.020900775 0.13049252
0001a0 b3 a4 10 3e 85 6c 8b 3d e0 b6 1e 3d 0b f4 14 3e
       0.14125328 0.06807808 0.038748622 0.1454622
0001b0 b6 d1 37 3c 49 c0 1c bd 69 38 b8 3b fa 77 8c bd
       0.011219433 -0.038269315 0.005621959 -0.06858821
0001c0 35 f7 16 3d 08 da 8d 3c e2 42 9f 3d 9d 8b ae 3d
       0.03685685 0.01731588 0.07776429 0.08522723
0001d0 69 84 84 3d 13 db fb 3c 4d c4 ba 3d 31 f1 a3 3d
       0.06470568 0.030744111 0.09119473 0.08004988
0001e0 5c 05 a2 3d e6 b8 8f bd e1 b4 94 3d be 2a 05 3e
       0.079111785 -0.070176885 0.072610624 0.13004586
0001f0 bb 1f 04 3e 4f b8 03 bd d3 fc eb bb d4 b8 08 3c
       0.12902729 -0.032158192 -0.00720177 0.008344848
000200 4b 8f 34 3d 15 3d 74 3d 18 c5 9a 3d 0b ba 19 3e
       0.044081967 0.059628565 0.07557124 0.15012376
000210 3e 71 d6 3c 5b a2 98 3d dd 53 aa 3d 2a dc 3e bd
       0.026177045 0.07452842 0.08316777 -0.046596684
000220 0b 96 d0 bc b5 63 18 3d 14 ba e0 3d 2c 3f a2 3b
       -0.025462171 0.037204463 0.109729916 0.0049513783
000230 e5 a5 03 bd 15 36 47 3d 06 4b e3 3d 09 9b e0 3d
       -0.03214063 0.04863556 0.11098294 0.109670706
000240 32 e3 69 bd bc 48 64 bb 37 53 d1 3d ec 87 b8 3d
       -0.057101436 -0.0034833392 0.1022095 0.090103
000250 cb 2d 09 3e d4 cb 21 3d 16 47 4b 3d fc 63 2e 3e
       0.13396375 0.039501026 0.04962834 0.17030329
000260 66 d0 32 bd c1 a7 35 bd 8d 47 ce 3d e4 3d c1 bc
       -0.043655775 -0.044349436 0.10072241 -0.023589082
000270 f2 c0 68 3c de e5 11 3e a4 1c c2 3d ac da 4f 3d
       0.014206158 0.14247844 0.09478119 0.05074565
000280 4e e8 57 3d 8a 6e 25 3d 50 03 09 3e 3b 67 c4 3c
       0.052711777 0.04038862 0.1338017 0.023975005
000290 99 af 7b 3d 8b b0 9a 3d a7 a6 7f 3c 57 b0 e1 3d
       0.06144676 0.07553204 0.015603698 0.11019962
0002a0 69 62 0e bc bd 78 81 3d 91 e0 9c 3c 88 d8 42 bb
       -0.008690455 0.06321857 0.01915005 -0.0029731113
0002b0 85 a7 13 bd a2 58 9b 3d f4 3e b1 3c cd 24 18 bd
       -0.03604843 0.07585265 0.021636464 -0.03714447
0002c0 71 b1 36 bc 43 db 1d 3e ca 85 d1 3d 46 e1 c0 3d
       -0.011150704 0.15415673 0.10230596 0.094179675
0002d0 1f 44 a1 bc 97 ed de 3c e6 1c 06 3d 7c 1a 11 bc
       -0.019685803 0.027212901 0.032742403 -0.008856412
0002e0 7e 20 c4 3d 64 e4 b2 3d a1 09 a4 3d 89 95 4a 3b
       0.0957651 0.08734968 0.08009649 0.0030911884
0002f0 ef d8 41 3d 67 63 fa bc 3b bb a3 3d 33 54 83 3d
       0.047326025 -0.030564977 0.07994696 0.06412544
000300 93 b2 56 bc 87 57 9b bd d5 a4 46 3d 3c db 1f 3d
       -0.013104099 -0.07585054 0.04849704 0.039027438
000310 de 1b 2b 3c 23 e6 ea 3d 33 7c 8c bd 94 0b eb 3d
       0.010443656 0.11469676 -0.068596266 0.11476818
000320 28 7f 83 3d 11 80 12 bd a1 63 12 3e ab da 2b bd
       0.064207375 -0.035766665 0.14295818 -0.041956585
000330 d1 e8 c0 bd ea 0c a3 3c d8 2a 1b bd 80 32 f5 3d
       -0.09419406 0.019903619 -0.037882656 0.11972523
000340 59 27 21 3d 34 69 bc 3d e0 c0 d9 bd ee 29 01 3e
       0.039344165 0.091997534 -0.10632491 0.12613651
000350 de 0d 0f 3d 74 ef bc bb 0b c6 da 3d d2 61 46 3d
       0.034925334 -0.0057658497 0.10682305 0.048433132
000360 3f 22 e4 3d 26 27 01 3c 95 ea b1 bc 46 6e bf 3c
       0.111393444 0.007882869 -0.021718303 0.023368012
000370 14 68 b5 3d 42 ee a7 3d db 35 2f 3d 9d 60 20 bc
       0.08857742 0.08199741 0.04277597 -0.009788659
000380 6d e0 68 3d 5c e7 04 3e 29 44 10 3e ec a5 2d 3e
       0.056854654 0.12978882 0.14088501 0.16957825
000390 16 9e f5 3d 64 29 1a 3e 73 50 25 bd b9 46 d7 3c
       0.11993043 0.15054852 -0.040359925 0.02627884
0003a0 3a 23 30 3d 45 25 71 3d 78 38 8e 3d 53 69 81 3d
       0.043002345 0.058873434 0.06944364 0.06318917
0003b0 36 1d d8 3d e5 9d 4c 3a 36 72 c8 3d 76 55 90 3c
       0.105524465 0.00078055105 0.09787409 0.017618876
0003c0 90 25 61 bd c2 36 d1 3c 0e 24 cd bc 96 b3 2d 3b
       -0.054967463 0.025538806 -0.025041606 0.0026504747
0003d0 be b8 c0 bc 29 13 e3 3c 9f e4 b8 3d 06 d7 99 3c
       -0.023525592 0.027719097 0.09027981 0.018779289
0003e0 74 d0 b9 3c 21 0d f8 bc c4 ab 1c bc bd fd 57 bc
       0.022682406 -0.030279698 -0.0095624365 -0.0131830545
0003f0 5b 0c 79 bc 54 29 1a 3d 32 f5 af 3d 40 16 e4 3c
       -0.0152007 0.03763707 0.08591689 0.02784264

tcn.network.0.conv.bias f4 [32]
000000 63 a6 07 3f 2e 69 0d 3f 46 f3 0d 3f e4 33 14 3f
       0.5298826 0.55238616 0.5544933 0.5789168
000010 e8 c5 28 3f a5 69 1a 3f 3a 89 fe 3e 74 13 f4 3e
       0.6592698 0.6031745 0.4971407 0.47671092
000020 3b c9 22 3f ca c7 0f 3f 2d af 55 ba ce b0 07 3f
       0.63588303 0.5616423 -0.00081514084 0.5300416
000030 45 a4 16 3f 41 3f 03 3f bb 26 13 3f 0c 70 06 3f
       0.58844405 0.5126839 0.57480973 0.5251472
000040 7c ba 02 3f 59 b3 0c 3f 95 8d 10 3f d5 9f 1b 3f
       0.510658 0.5496116 0.5646604 0.6079076
000050 e4 db 05 3f 42 c4 1c 3f de 56 1f 3f 66 13 22 3f
       0.5228865 0.61236966 0.62241924 0.6331085
000060 8f 1a 0c 3f 89 14 06 3f 1f c1 16 3f 00 06 13 3f
       0.54728025 0.52375084 0.5888843 0.5743103
000070 02 21 f1 3e a3 f7 00 3f 09 80 13 3f 7c bd 1f 3f
       0.47095495 0.50377864 0.5761724 0.62398505

tcn.network.1.conv.weight f4 [32, 32, 3]
000000 55 e3 93 3d d4 6c e2 3d 54 b5 6f 3d 01 51 de 3c
       0.072210945 0.110559136 0.058522537 0.027138235
000010 d5 ef 1a 3d 6a 28 3d 3e 1d 35 54 3e d0 12 69 3d
       0.037826378 0.18472448 0.20723386 0.056902707
000020 5c 99 92 3d 57 36 96 3d 25 57 0e 3e 1d d9 84 3d
       0.07158157 0.07334583 0.1390043 0.064867236
000030 b8 fa 36 3d 10 ac a4 3d 0d 1d 24 3e 3a ae 35 3e
       0.044672698 0.08040631 0.16026707 0.17742243
000040 f6 76 d9 3d a4 ab a0 3d 93 75 03 3e 39 f6 cc 3d
       0.10618393 0.07845238 0.1283782 0.10007901
000050 28 c2 f0 3d a1 74 92 3d d9 4e c4 3d 21 a9 24 3e
       0.11755782 0.071511514 0.095853515 0.16080143
000060 28 c9 11 3e 5b 00 8b 3d 61 1d 86 3e 6d d0 28 3e
       0.14236891 0.06787177 0.2619429 0.16485758
000070 c0 c6 88 3d cd 31 44 3e 11 24 15 39 11 fb 37 39
       0.066785336 0.19159622 0.00014223183 0.0001754577
000080 2e 14 64 39 55 e1 06 3e d6 64 58 3e ae 52 61 3d
       0.00021751292 0.13171895 0.21132216 0.05501049
000090 6c bd 64 3d 7c 4b 0a 3e 08 35 45 3d 76 bd e4 3d
       0.05584471 0.13505358 0.048146278 0.11168949
0000a0 e4 83 9f 3d 07 b8 8d 3d 8a 6d 39 3e 75 cc d0 3d
       0.07788828 0.06919866 0.18108192 0.10195247
0000b0 59 92 b6 3d d5 ab 04 bd 31 ef 05 3e ad 60 cf 3c
       0.08914632 -0.032390434 0.13079526 0.025314653
0000c0 5e 04 a5 3d 3d 44 13 3e 77 d2 8b 3d 11 46 b0 3d
       0.080574736 0.143815 0.06827252 0.08607114
0000d0 53 73 d4 3d e4 e6 2b 3e d7 e1 43 3e 26 c1 e1 3c
       0.10373559 0.16787297 0.1912912 0.02755792
0000e0 f5 97 00 3d d7 f5 7e 3d 72 7d ad 3c bf 06 1d 3e
       0.031394918 0.06224617 0.021177981 0.15334605
0000f0 69 8c 12 3c 92 ab 7c 3d e3 6c e7 3d ff 69 32 3e
       0.008944609 0.06168706 0.11300065 0.17423247
000100 97 d8 6c 3d f4 c2 14 3d 4c 0e 1f 3e f2 f9 d9 3d
       0.057823744 0.036318734 0.15532798 0.106433764
000110 81 dd 76 3e 06 3e 09 3e 99 75 2c 3e 4d 35 ab 3d
       0.24107935 0.13402566 0.16841735 0.08359776
000120 fa b5 3e 3e 4f 91 a9 3c a4 76 43 3d 4e 73 0d 3e
       0.18624106 0.020699171 0.047720566 0.13813516
000130 a4 fd 44 3d db 2b 28 3e cd a9 98 3c b3 23 07 3e
       0.048093453 0.1642298 0.018635655 0.13197212
000140 65 f8 2d 3e 9c 29 0a 3e 24 d9 84 3d 12 1b 99 3c
       0.16989286 0.13492435 0.06486729 0.018689666
000150 ec b6 3d 3d b1 b0 c3 3d 7c 5f 2d 3e 73 e9 87 3d
       0.046317026 0.095551856 0.16930956 0.06636324
000160 00 72 37 3e 24 05 fd 3c 35 6a 12 3d bb d9 c8 3d
       0.17914581 0.03088624 0.03574582 0.09807154
000170 dd 26 60 3d 6c 54 15 bc 1b 52 f8 3d 2a 21 ab 3d
       0.054724563 -0.009114366 0.121250354 0.08355935
000180 7a b2 8f 3d b2 fc 08 3e 9e 51 e5 3d 46 22 e5 3d
       0.070164636 0.13377646 0.11197208 0.11188178
000190 c9 0a 4a 3e ad 93 1f 3d 6d e4 86 3d ef 30 32 3e
       0.19730677 0.038959194 0.065865375 0.17401479
0001a0 56 22 10 3e 6c 1e 92 3d 66 80 6c 3d fa 2f 6a 3c
       0.14075598 0.07134709 0.057739638 0.014293665
0001b0 58 82 e2 3d 1b 94 49 3c 69 5d 90 3d 21 67 a2 3d
       0.11060017 0.0123033775 0.070490666 0.079298265
0001c0 99 ab 18 3e a8 8c 12 3e f1 49 ea 3d c8 dd fb 3d
       0.1490921 0.14311469 0.114398845 0.12298161
0001d0 d6 11 8d 3d 68 6f 07 3d 42 77 67 3d 41 cd 13 3e
       0.068881676 0.03306523 0.056510217 0.14433767
0001e0 a3 c5 43 3e d1 2e e4 3d 42 31 6d 3d 99 48 fd 3d
       0.19118361 0.11141742 0.057908304 0.123673625
0001f0 d8 0e 0b bb 17 e6 31 3e e4 91 d8 33 b4 51 f4 34
       -0.0021218564 0.17372929 1.0084821e-07 4.5507988e-07
000200 cb 72 6b 37 52 f3 23 3e cc d1 28 3d a2 28 c4 3d
       1.4033819e-05 0.16010788 0.041215703 0.095780626
000210 a4 d6 16 3e c3 98 81 3d de 50 33 3e 14 06 09 3e
       0.14730316 0.06327965 0.17511317 0.13381225
000220 64 de c5 3d c2 b5 26 3e 84 1c 21 3e ff f2 24 3b
       0.09661558 0.16280273 0.15733534 0.002516925
000230 73 e1 8e 3d a2 15 07 3e 2c ab fa 3d 29 78 d7 3d
       0.06976595 0.13191846 0.1223968 0.105209656
000240 b4 9f be 3c 64 03 29 3e 4e c8 15 3e 43 09 7b 3c
       0.023269512 0.165052 0.14627191 0.015322032
000250 c7 d0 af 3d 7d 82 12 3e 62 24 df 3c f8 06 a6 3d
       0.08584743 0.1430759 0.027239028 0.08106798
000260 b2 05 57 3d 00 f4 28 3d 01 56 2d 3e 8b e0 3a 3e
       0.052495666 0.04124832 0.16927339 0.18249719
000270 8e 18 3e 3d 1c 86 26 3e 5f ce 5c 3d 06 03 ff 3d
       0.046410136 0.16262096 0.05390775 0.124517485
000280 00 ed ec 3d e2 ef c0 3d d3 f8 d7 3d 13 fe be 3d
       0.11568642 0.09420754 0.10545506 0.093258046
000290 3b cd cd 3d b1 f4 11 3e 83 48 bd 3d 23 ce 61 3e
       0.1004891 0.14253499 0.09242346 0.22051291
0002a0 16 66 7c 3d 34 60 c1 3d dc 9e 17 3e ae f0 f9 3d
       0.061620794 0.094421774 0.14806694 0.12204109
0002b0 a2 47 09 3d 7e 7a d5 3d 5c ac 0d 3d 3e 0b 28 3d
       0.03351558 0.10423754 0.034588203 0.041026346
0002c0 95 06 68 3d ec 3f 3a 3e ef 89 47 3d 0b a1 fa 3d
       0.056646902 0.18188447 0.048715528 0.12237748
0002d0 3f c7 e6 3d 0f 2c 33 3e 83 05 32 3e da 5d 45 3d
       0.11268472 0.17497276 0.17384915 0.048185207
0002e0 75 6c 51 3e 78 b5 96 3d 27 dc 35 3e 13 6f 33 3e
       0.2045153 0.07358831 0.17759763 0.1752284
0002f0 76 5f 68 3e 2e 92 a3 3d c8 90 5f 3d 5b 7a 17 3e
       0.22692665 0.07986866 0.054581434 0.14792769
000300 01 a7 81 3d f5 36 1f 3d 1f 1a dc 3d 6d bc 10 3d
       0.063306816 0.03887077 0.1074717 0.035335947
000310 c8 48 fc 3d d0 e9 2e 3e 8f 5a 2c 3e 0c d3 bd 3d
       0.123185694 0.1708138 0.1683142 0.092687696
000320 04 3c cd 3d 8a fb e5 3d 91 ee 5c 3c 69 16 a1 3d
       0.10021213 0.11229618 0.013484613 0.078656025
000330 3b d1 1e 3e 34 be 03 3d d5 ad 28 3e ff be 76 3d
       0.15509503 0.032163814 0.16472562 0.06024074
000340 20 31 09 3d b9 4f 90 3d c8 d1 c1 3b f2 59 6b 3b
       0.033494115 0.07046456 0.0059149005 0.0035911766
000350 91 45 c9 3d a4 00 bc 3d 50 34 10 3e fc f2 04 3e
       0.09827722 0.0917981 0.14082456 0.12983316
000360 9c a9 92 3d ee 2f ec 3d 5a da 70 3e 34 5c 80 3d
       0.07161257 0.11532579 0.23520795 0.06267586
000370 a7 7c 09 3e fe 17 34 3d ef 8f d5 b5 46 43 29 38
       0.13426457 0.043968193 -1.5911627e-06 4.0355393e-05
000380 1d 14 cd 35 c7 49 1a 3e 16 3e 37 3e 89 ae 0e 3e
       1.5279544e-06 0.15067206 0.17894778 0.13933767
000390 ef 15 65 3e 17 58 b2 3d c6 ba d6 3d 43 fd 73 3d
       0.22371648 0.08708208 0.10484843 0.0595677
0003a0 ac 02 1d 3d 47 0c d4 3d 20 b4 d8 3d 50 1e 3b 3e
       0.038332626 0.10353904 0.10581231 0.18273282
0003b0 56 8e ed 3d e2 25 0f 3e 01 93 1b 3e 69 18 2d 3e
       0.11599414 0.13979295 0.15192796 0.16903843
0003c0 68 23 02 3e 4a b6 04 3e 12 8a f2 3d 24 90 6f 3d
       0.12708819 0.12960163 0.11842741 0.058487073
0003d0 e0 d7 ab 3c 63 7a 6e 3e 29 c1 28 3e 7a 36 96 3c
       0.02097696 0.23288874 0.16479935 0.018336523
0003e0 d1 09 1a 3e f0 16 f0 3d e4 a7 d1 3d cc 8d 75 3e
       0.15042807 0.11723125 0.10237101 0.23979872
0003f0 b4 f4 a9 3d 87 c8 8c 3d f7 11 22 3e 4f 26 c2 3d
       0.082986265 0.06874185 0.15827166 0.09479963

tcn.network.1.conv.bias f4 [32]
000000 1e f6 95 3f 44 00 a4 3f 15 0f 98 3f 50 0e 9e 3f
       1.1715734 1.2812581 1.1879603 1.2348118
000010 09 46 aa 3f c3 04 85 3f 1f ab a1 3f bd 8e b7 ad
       1.3302623 1.0392078 1.2630347 -2.086808e-11
000020 7a ac 3a 3f e0 09 a1 3f a2 17 9f 3f b7 ce fa b0
       0.7291943 1.2581139 1.2429087 -1.8248646e-09
000030 ee e1 9f 3f 7d 18 02 a5 23 0c c2 81 0a 5b 9b 3f
       1.2490823 -1.1284e-16 -7.128176e-38 1.2137158
000040 66 f3 8a 3f 8d 34 97 3f d6 53 9f 3f 4a a8 90 3f
       1.0855529 1.1812912 1.244746 1.1301358
000050 a3 a1 96 3f 45 88 9e 3f 1c 8b 97 3f 64 5d 14 bc
       1.1768078 1.2385336 1.1839328 -0.009055469
000060 d7 dd a2 3f d0 70 44 8b b5 1d e0 b1 f2 06 9c 3f
       1.272395 -3.7833098e-32 -6.5226353e-09 1.218962
000070 90 2a 9b 3f 0a 13 8a 3f 40 2d 8e 3f e4 1b 9b 3f
       1.2122364 1.078706 1.1107559 1.2117887

fusion.0.weight f4 [32, 32]
000000 ef 09 b0 3d 44 de 5f 3e 88 ed 43 3d f9 6e 4c 3e
       0.08595645 0.21862131 0.04783395 0.19964208
000010 7b 93 64 3e 71 78 89 3d 0a 89 1f 3e 7c 39 35 34
       0.22321884 0.067124255 0.1557962 1.6877851e-07
000020 87 eb 41 3e 86 90 05 3d 60 62 f0 3d 16 e4 ed bb
       0.18937503 0.03260853 0.117375135 -0.007259856
000030 12 6d 86 3e 3e b2 1d 38 a5 76 6b 18 d4 53 96 3c
       0.2625509 3.7597718e-05 3.0432938e-24 0.01835052
000040 cd df 47 3e 8d 2a 90 3d e0 be bd 3d 5d 60 6a 3e
       0.19518967 0.07039366 0.09264922 0.22888322
000050 86 0c d6 3d 31 13 58 3e 96 28 96 3d 66 4e a8 bc
       0.104516074 0.21101071 0.0733196 -0.020545196
000060 d1 e0 5d 3e 64 06 3b 2d b9 8e a1 39 cd 2b e2 3d
       0.21667792 1.0631138e-11 0.0003081465 0.110435106
000070 b3 9a 45 3e 3a 90 8f 3e 74 18 81 3e f7 6c 23 3e
       0.19297294 0.28039724 0.2521397 0.15959536
000080 70 4a c4 3d b5 82 eb 3d 58 92 8f 3d 66 eb 61 3e
       0.0958451 0.1149954 0.07010335 0.22062454
000090 62 3c ba 3d 08 0f 9b bc 36 35 46 3e b0 a8 b2 35
       0.09093548 -0.018928066 0.19356236 1.3311128e-06
0000a0 3e 25 3a 3e f7 bd 41 3e 33 e0 44 3e 2d c3 85 bb
       0.1817827 0.18920122 0.1922615 -0.0040821047
0000b0 37 8c 93 3d 90 87 12 b7 e7 02 41 1e 83 aa 93 3e
       0.07204478 -8.733841e-06 1.0217935e-20 0.28841028
0000c0 a5 c3 91 3d 43 1b 73 3e 40 cc 3e 3e ce 45 05 3e
       0.07117394 0.23740868 0.18632603 0.1301491
0000d0 6b 2d 8f bc 6a 73 83 3d ae 3e 6a 3e 1f 35 cc bc
       -0.017477712 0.06418498 0.22875473 -0.024927674
0000e0 89 fa 16 3e e0 97 2d 32 c0 50 1b 39 48 ee 89 3e
       0.14744009 1.0104458e-08 0.00014812034 0.26939607
0000f0 2e c0 45 3e bc 19 50 3e 8b 35 2a 3e 6d 35 21 3e
       0.19311592 0.20322317 0.16621988 0.15743037
000100 8c 36 4f 3e 1b 58 5c 3e c7 92 ab 3d ed 98 8b 3c
       0.20235652 0.21517985 0.08377605 0.017040694
000110 cb 9f 91 3d b1 24 33 3e 8b 1d 75 3e 35 12 1a 3a
       0.07110556 0.17494465 0.23937051 0.0005877347
000120 68 6c fc 3d e7 b1 94 3e c9 37 64 3e f2 1b d7 bb
       0.12325364 0.2904198 0.22286905 -0.0065646106
000130 eb 09 55 3e 80 4d f0 36 84 fb 09 1b 0f 40 3f 3d
       0.20804565 7.1615796e-06 1.1413643e-22 0.04669195
000140 2a a7 11 3e 04 c7 92 3d 3b c0 7b 3d 4e 75 92 3d
       0.14223924 0.071668655 0.061462622 0.0715128
000150 de 2c ac 3d 77 22 d1 3d b2 dd 6e 3e d7 83 a4 3c
       0.08406995 0.10211652 0.23326758 0.020082397
000160 c7 f8 62 3e 81 40 17 34 e2 ea a2 39 ff cf 42 3e
       0.22165214 1.4086437e-07 0.0003107405 0.19024657
000170 21 36 97 3e 72 f6 7a 3d 7b 10 37 3d a5 0c 4a 3e
       0.29533485 0.061270185 0.04469345 0.19731386
000180 9a ff 53 3e f8 db 16 3d 4b 9f 35 3e 1b 9d ab 3e
       0.20702973 0.036830872 0.17736547 0.335183
000190 2a 31 ef 3d 8c 5f c1 3d b0 dd 64 3e fc 61 04 38
       0.11679299 0.09442052 0.22350192 3.1562508e-05
0001a0 9e 50 0f 3e b6 a9 01 3c 59 80 1a 3e 09 9f ad bb
       0.13995597 0.007913997 0.15088023 -0.0052984995
0001b0 21 66 2f 3d f2 e8 ac 33 c5 d5 92 0b 67 bb 4b 3e
       0.042822007 8.051747e-08 5.65588e-32 0.19895707
0001c0 a3 91 4f bc 0c ee 77 3e 24 5f 6a 3e 6c cf 8b 3e
       -0.012669 0.24211901 0.22887856 0.27306688
0001d0 57 ca 07 3e b1 80 07 3e 5e 18 30 3d 6a 29 bf bb
       0.1326078 0.13232686 0.04299199 -0.0058337944
0001e0 66 fe 30 3e 52 6a 9b 34 79 7c a5 39 a0 1c e4 3d
       0.17284545 2.8948358e-07 0.00031563992 0.11138272
0001f0 f9 db 29 3e bf d2 d3 3d 67 99 0f 3e d4 43 8a 3e
       0.16587819 0.10342931 0.14023362 0.27004874
000200 dd e8 57 3e 0a 20 6d 3d 5d 24 bd 3d d2 1b 53 3e
       0.21084924 0.057891883 0.09235451 0.20616081
000210 2f 6f 39 3e 20 df d0 3d 1b 2c 61 3e cb e5 9f 3b
       0.1810882 0.10198808 0.21989481 0.0048796884
000220 5e 47 03 3e 39 5b 47 3e 11 7c 28 3e 5c 76 3d bc
       0.12820193 0.19468392 0.16453578 -0.011563864
000230 db 04 56 3e a8 c7 52 36 bf f3 14 2a da 57 57 3e
       0.2090029 3.1408654e-06 1.3229607e-13 0.21029606
000240 32 1c 3b 3d f5 d5 50 3e 73 53 96 bc e2 d2 8d bc
       0.045681186 0.20394118 -0.018350339 -0.01731247
000250 d1 ed 09 3e 06 12 c9 3d c2 5b 0a 3e 69 79 ff bc
       0.13469626 0.09817891 0.13511565 -0.031185823
000260 13 7a 4d 3e 7f a0 fd 31 87 01 f0 39 96 f9 00 3e
       0.20066099 7.3815154e-09 0.00045777505 0.1259521
000270 06 48 95 bc d8 e4 44 3d 1d 81 80 3e c8 2c 05 3e
       -0.01822282 0.048069805 0.25098506 0.13005364
000280 6d 17 87 3d e4 d5 0b 3e 45 a9 e5 3d 20 c7 f8 3d
       0.06596265 0.13655812 0.11213926 0.12147355
000290 ed 06 6c 3e 84 0c c1 3d df 24 45 3e 74 e3 40 39
       0.23049517 0.09426215 0.19252346 0.0001839528
0002a0 09 f7 f0 3d af ea 0d 3e 18 32 4e 3e 03 47 be bb
       0.11765868 0.13859056 0.20136297 -0.005806805
0002b0 01 42 53 3e 7e 05 04 34 fa 23 89 1a b3 17 75 3e
       0.20630647 1.2295456e-07 5.6719995e-23 0.23934822
0002c0 19 79 df 3c 64 3b fc 3c 10 39 1a 3e d7 d9 b7 3c
       0.027279424 0.030790038 0.1506083 0.022442741
0002d0 e2 ae 18 3e ae eb cc 3d 04 9b f4 3d 11 33 22 bc
       0.14910462 0.1000589 0.119436294 -0.0098998705
0002e0 ac be cd 3d e8 04 f7 34 b6 12 3e 39 4d b9 81 3e
       0.100461334 4.6010905e-07 0.00018126782 0.25336686
0002f0 b6 c7 0a 3e 5f 50 53 3e 99 c9 87 bc e8 41 f9 3d
       0.13552746 0.20636128 -0.016575621 0.12170774
000300 5d 37 7e 3e 2a 1a 70 3e 02 f3 22 3e 28 dc 7b 3e
       0.24825807 0.23447481 0.15913013 0.24595702
000310 07 ee 09 3e ca c8 52 3d 7f 04 3c 3e be e9 08 b6
       0.13469706 0.05146102 0.1836109 -2.0401635e-06
000320 a1 98 17 3e d8 06 0a 3e 2c e6 36 3e a3 fb 0d 38
       0.14804317 0.13479173 0.17861241 3.3851375e-05
000330 c4 c9 8d 3d 58 4a 76 b4 f6 ee d5 01 2f 56 2c 3e
       0.06923249 -2.2937581e-07 7.8586735e-38 0.16829751
000340 74 e8 13 3e 1c 51 77 3e b2 b3 c6 3d e4 b5 cf 3d
       0.14444143 0.24152035 0.09702243 0.10142115
000350 15 2d 08 3d 35 50 1b 3e 79 ca db bb b8 9a 4b bd
       0.03324612 0.15167315 -0.006707486 -0.0497081
000360 e4 6e 00 3e 3f 3a 6e 31 7c 1f 91 39 ad 68 48 3e
       0.12542301 3.4666667e-09 0.00027680013 0.1957118
000370 fe 8c 54 3e 1a ac 72 3e 17 2f 58 3d 82 a6 d9 3d
       0.20756909 0.23698464 0.052779283 0.10627462
000380 1f f4 39 3e 77 62 11 3e 4b 3f 20 3e 28 3f 06 3e
       0.18159531 0.14197718 0.15649144 0.1311003
000390 72 fd b4 3d 67 ea 05 3e 80 78 04 3e a7 67 fe 38
       0.08837403 0.13077699 0.12936592 0.000121309706
0003a0 80 61 39 3e c1 69 28 3e 9e cb 80 3e d0 86 54 ba
       0.181036 0.16446592 0.25155348 -0.0008107247
0003b0 14 c1 08 3e 1e db 2e 37 bd 87 c3 81 08 d7 81 3d
       0.13354903 1.0422225e-05 -7.182646e-38 0.06339842
0003c0 0a 0d 99 3e ac d8 62 3e 94 34 d9 3d 6e be 3d 3d
       0.2989276 0.22152966 0.106057316 0.046324186
0003d0 30 13 6d 3e d5 a1 17 3e c0 78 81 3e 1c 4c e4 bc
       0.2315185 0.14807828 0.25287437 -0.027868323
0003e0 ca 47 72 3e 8a 79 bc 2d c5 1d bb 38 44 3b 64 3e
       0.23660198 2.14271e-11 8.9224e-05 0.22288233
0003f0 56 d6 38 3d 08 35 cf 3d 60 d7 28 3e 9f 4a 4a 3e
       0.04512628 0.10117537 0.16488409 0.19755028

fusion.0.bias f4 [32]
000000 9b 27 27 40 e3 eb 43 40 32 e2 30 40 92 9e 29 40
       2.6117923 3.0612724 2.7638059 2.6503034
000010 15 8b 45 40 6b 8c 43 40 d8 dd 43 40 d3 5a 33 40
       3.086614 3.0554454 3.0604153 2.8024185
000020 97 47 1b 40 4c da 3b 40 ec a3 47 40 ca 4c 43 40
       2.4262445 2.9351988 3.11938 3.0515618
000030 a1 c5 1c 29 fe 9f 4c 40 aa d9 43 40 7a 28 25 40
       3.4810374e-14 3.1972651 3.0601602 2.5805955
000040 c1 0a 5d 40 db 0e 2a 40 27 1e 50 40 0f 4b 19 40
       3.4537814 2.6571567 3.2518404 2.3952062
000050 2a 4d 38 40 0d 13 21 40 e1 6e 48 40 61 6c 49 40
       2.8797097 2.5167878 3.1317675 3.14724
000060 60 7e 3c 40 35 50 31 40 43 22 23 40 17 eb 29 40
       2.9452133 2.7705204 2.5489662 2.6549737
000070 cc b6 4c 40 19 81 10 16 3a 72 d9 a2 90 97 52 40
       3.198657 1.1672963e-25 -5.893891e-18 3.2905006

predictor.0.weight f4 [16, 32]
000000 11 f2 d1 3d d1 5f 3f 3e 49 cf 86 3e 7b 91 65 3e
       0.10251249 0.18688895 0.2633002 0.22418778
000010 94 16 1b 3e 42 5c 33 3e 6b fe 11 3e 1f d8 8d 3e
       0.15145332 0.17515662 0.14257209 0.2770395
000020 32 74 28 3e 5b 95 12 3e 02 aa d9 3d 85 59 4e 3e
       0.16450575 0.14314787 0.106281295 0.20151336
000030 4e ec 11 37 6b 3b 48 3e 41 d5 97 3e 2f 9a 04 3e
       8.6976925e-06 0.19553916 0.29654887 0.12949441
000040 e1 8f 78 3e 8e 5a 3a 3e e1 25 ea 3d ec ea b9 3d
       0.24273635 0.18198606 0.11433006 0.09078011
000050 12 40 6e 3e ae f5 5b 3e a7 ad 2a 3e 46 aa 09 3e
       0.23266628 0.21480438 0.16667806 0.1344386
000060 ef b8 7b 3e 02 d7 0a 3e a3 09 4f 3e 58 bb 34 3e
       0.24582265 0.13558581 0.2021852 0.17649591
000070 de 26 4f 3e ed 20 f8 37 c1 c2 9e 38 fd 88 25 3e
       0.2022967 2.9579236e-05 7.570303e-05 0.16165538
000080 57 49 8b 3e 76 0d d7 3d 57 6d 6f 3e 09 c8 47 3e
       0.2720439 0.10500614 0.23381554 0.19509901
000090 a0 e7 40 3e 06 78 a1 3e 97 b5 07 3e 19 11 c2 3e
       0.18838358 0.31536883 0.13252865 0.3790367
0000a0 ae c1 85 3e 08 dd 65 3e dc 43 9d 3e e3 f2 23 3e
       0.26124328 0.22447598 0.30715835 0.16010623
0000b0 da c6 55 b5 68 f1 5a 3e b1 6b 82 3e ef ee 81 3e
       -7.963805e-07 0.21381152 0.25472787 0.25377604
0000c0 53 2b 69 3e 1e d6 a5 3e 58 77 83 3e 91 4a 4b 3e
       0.22770433 0.3238992 0.2567699 0.19852664
0000d0 51 68 52 3e e6 b6 58 3e c1 2a 19 3e cf 3f 48 3e
       0.20547606 0.2116352 0.14957716 0.19555591
0000e0 c9 ea 38 3e e9 46 04 3e 66 4e 80 3e 80 f3 82 3e
       0.18058313 0.12917675 0.25059813 0.255764
0000f0 61 d5 a8 3e 07 fe 9c 36 c7 27 d6 38 57 ed 1f 3e
       0.32975295 4.678735e-06 0.00010211724 0.15617882
000100 77 ea 9a 3e f1 34 2a 3e 69 47 42 3e f9 06 8b 3e
       0.30257007 0.16621758 0.18972553 0.27153757
000110 b8 bc 1d 3e b7 4a 0e 3e 36 92 2f 3e 45 a9 25 3e
       0.15404022 0.13895689 0.17145619 0.16177852
000120 f4 fd 2c 3e 30 b2 ff 3d 5d d8 4d 3e 99 fb 4c 3e
       0.1689375 0.124851584 0.20102067 0.20017852
000130 25 9c ec 38 ee 4d 59 3e e4 96 15 3e bb 43 31 3e
       0.00011282441 0.21221134 0.14608341 0.17310993
000140 92 1a 75 3e 99 10 f5 3d 1a 06 7d 3e 4d 7d 82 3e
       0.23935917 0.119660564 0.24709359 0.25486222
000150 a4 e1 2a 3e 4f 8d 3d 3e da 00 07 3e da e6 96 3e
       0.16687638 0.18510936 0.13183919 0.29473
000160 7d dd 5d 3e a3 03 06 3e aa 58 44 3e 50 68 87 3e
       0.21666522 0.13087325 0.19174448 0.26446772
000170 9e 6e 56 3e 3f dc 33 37 60 3e 22 3a fe f3 47 3e
       0.20940635 1.0720511e-05 0.0006189104 0.1952667
000180 2f 47 70 3e 80 f1 52 3e 4d ca 91 3e d5 f9 8c 3e
       0.23464654 0.20599937 0.28474656 0.27534357
000190 67 fa 84 3e 4f a6 63 3e 8b a5 24 3e dd d3 15 3e
       0.25972292 0.2223141 0.16078775 0.146316
0001a0 27 32 f2 3d 75 87 81 3e 7b 12 11 3e f2 89 7c 3e
       0.11825972 0.25298658 0.14167206 0.24661997
0001b0 57 e9 17 b8 6b c8 60 3e 5c f5 8d 3e d8 2e 37 3e
       -3.621852e-05 0.21951453 0.27726257 0.17888963
0001c0 6d 63 27 3e 84 0c 52 3e e2 65 42 3e e6 c0 be 3d
       0.16346522 0.20512587 0.18984178 0.09314136
0001d0 df 4a 45 3e e6 ff 6d 3e 46 e7 5f 3e 08 1d 96 3e
       0.19266842 0.23242149 0.21865568 0.29319024
0001e0 cb 6c 3e 3e 17 da 4c 3e 97 09 3a 3e e3 84 6f 3e
       0.18596189 0.2000507 0.1816772 0.23390536
0001f0 83 71 88 3e 64 00 0e 32 56 d9 16 39 45 6c 9b 3e
       0.26649103 8.265577e-09 0.00014386079 0.3035604
000200 04 cc 46 3e 2e 09 ac 3e d9 80 7e 3e 9b c1 aa 3e
       0.19413763 0.33600754 0.24853839 0.33350834
000210 43 24 65 3e d4 3a 66 3e 08 0e 53 3e bb d1 72 3e
       0.22377114 0.22483379 0.20610821 0.23712818
000220 3f 5a 85 3e b0 2e d2 3d a7 b7 33 3e df dc a8 3e
       0.26045415 0.10262811 0.17550527 0.3298101
000230 68 2e 0d 38 8c f8 73 3e 3c e2 40 3e 56 63 61 3e
       3.366024e-05 0.23825282 0.18836302 0.2201055
000240 4a 30 4d 3e c8 6e 55 3e 25 97 6a 3e 7e 93 8d 3e
       0.20037952 0.20843041 0.2290922 0.2765159
000250 1b 67 a1 3e 63 dd fe 3d d1 a0 73 3e 2c f7 4d 3e
       0.31523976 0.1244457 0.23791815 0.2011382
000260 69 1e 57 3e 07 41 cf 3e a0 5c 79 3e 30 91 a9 3e
       0.21007694 0.404793 0.2435174 0.33118582
000270 16 60 4d 3e ba 9f 66 36 ac bd 71 39 38 6a 64 3e
       0.20056185 3.4365644e-06 0.0002305421 0.22306144
000280 8e 35 fd 3d 31 8a ab 3e d4 27 3d 3e 31 c6 65 3e
       0.1236373 0.3350387 0.18472224 0.22438885
000290 4f 75 79 3e d1 b6 76 3e ea 78 4a 3e f3 96 62 3e
       0.24361156 0.24093176 0.19772688 0.22127895
0002a0 5b 1c 3f 3e 8a 26 41 3e ac ea 76 3e 1d ca 22 3e
       0.1866316 0.18862358 0.24112958 0.15897413
0002b0 b6 5c 15 39 f6 83 86 3e de a2 55 3e 65 ef 31 3e
       0.00014244285 0.26272553 0.2086291 0.17376478
0002c0 37 a9 8b 3e dc 6f 42 3e 37 40 49 3e f8 d7 7b 3e
       0.27277538 0.18987983 0.19653402 0.24594104
0002d0 9e d2 1a 3e b3 0c d4 3d ed bf 96 3e 35 49 60 3e
       0.15119407 0.10353985 0.29443303 0.21902926
0002e0 c8 17 e6 3d 69 03 88 3e 2d 97 53 3e d6 10 ae 3d
       0.11235005 0.26565102 0.20663138 0.08499305
0002f0 a8 a9 02 3e 1b e5 86 37 13 4f 95 39 64 c4 fa 3d
       0.12760031 1.608073e-05 0.0002847841 0.1224449
000300 02 7c 62 3e 14 61 67 3e 23 7f 23 3e d0 f4 14 3e
       0.22117618 0.22595626 0.15966468 0.14546514
000310 06 38 55 3e 44 fc 62 3e 17 db 1c 3e 73 53 2a 3e
       0.20822152 0.22166544 0.15317951 0.16633396
000320 a2 5f 86 3e 57 f6 a7 3e c7 9b 07 3e d2 e6 aa 3e
       0.26244837 0.3280513 0.13243018 0.33379227
000330 2e 74 8b 3a f5 cf 94 3e e1 1e 17 3e 9b 5e 2a 3e
       0.0010639483 0.2906491 0.14757873 0.16637652
000340 16 47 65 3e b7 4f 7b 3e ac 19 22 3e 67 d9 80 3e
       0.22390398 0.24542128 0.15830106 0.25165865
000350 01 82 81 3e ab 80 05 3e a1 b0 0e 3e dc 2c a7 3d
       0.25294498 0.13037364 0.13934566 0.08162853
000360 ab b9 6b 3e 57 fd 43 3e 37 cf 02 3e 4d 64 e9 3d
       0.23020045 0.1913961 0.12774359 0.11396084
000370 f9 34 69 3e e4 24 f4 34 6e f7 87 39 40 0a 53 3e
       0.22774114 4.5475383e-07 0.00025933556 0.20609379
000380 fd 4f a3 3e 4b c4 24 3e f5 c3 1b 3e 1b 76 2a 3e
       0.31896964 0.16090505 0.1521147 0.16646616
000390 4d 26 9e 3e ef 6e 75 3e 62 d0 8e 3e 2b 9b 58 3e
       0.30888596 0.23968099 0.27893358 0.21152942
0003a0 70 c7 21 3e ea ef 42 3e d6 33 8a 3e 7a 03 6a 3e
       0.15798736 0.19036832 0.26992673 0.22852889
0003b0 d8 e7 9c b7 e7 ad 6c 3e af b7 7f 3e ef 3c 22 3e
       -1.870461e-05 0.23113213 0.24972413 0.15843557
0003c0 7b 2e a4 3e fd 40 8f 3d 5d bb 93 3e f0 2a f1 3d
       0.32066712 0.069948174 0.28853884 0.11775768
0003d0 df 76 60 3e 5f f1 7c 3e 4b ef 78 3e 75 99 8a 3e
       0.21920346 0.24701451 0.24310033 0.27070203
0003e0 73 6b b3 3e 31 b7 1b 3e e4 d6 63 3e 70 dd 7e 3e
       0.35042915 0.152066 0.22249943 0.24889159
0003f0 89 77 7d 3e 7f e8 00 33 18 ea 2e 39 e8 60 69 3e
       0.2475263 3.0013776e-08 0.0001668114 0.22790873

predictor.0.bias f4 [16]
000000 d7 a5 6c 40 45 5f 4f 40 96 ce 44 40 2c 4e 7b 40
       3.697622 3.2401898 3.075109 3.9266462
000010 00 e8 65 40 2c 3e 4d 40 e5 34 8f 40 29 a2 88 40
       3.5922852 3.2069197 4.475207 4.269795
000020 f8 b7 4b 40 ee c5 73 40 e8 64 98 40 90 da 41 40
       3.1831036 3.8089557 4.7623177 3.028965
000030 1c 48 56 40 3e ae 43 40 dd 0e 4c 40 c3 84 76 40
       3.3481512 3.05751 3.1884072 3.8518531

predictor.3.weight f4 [1, 16]
000000 32 9d be 3e 34 f1 9a 3e 18 83 b6 3e 1e 80 98 3e
       0.37229306 0.30262148 0.35646892 0.29785246
000010 f1 f9 8b 3e c5 8e a7 3e 4c 10 b1 3e ed 3a 99 3e
       0.27339128 0.32726112 0.34582746 0.2992777
000020 e6 ea 83 3e 98 68 8c 3e c9 e7 b9 3e 6f 70 96 3e
       0.2576515 0.2742355 0.3630965 0.29382655
000030 f3 cb 82 3e 39 9b b8 3e 7c 62 ba 3e da 29 b2 3e
       0.25546226 0.36055925 0.36403263 0.34797555
